best_model.pth (torch, 52854 bytes, 15 tensors)

encoder_embedding.weight f4 [67, 32]
0	0xbe552433	-0.2081459
1	0xbf82e31c	-1.0225558
2	0x3f8272cb	1.0191282
3	0xbf5216b9	-0.8206592
4	0xbf84b25f	-1.0366935
5	0xbfd563fe	-1.667114
6	0x3f49dcf3	0.78852767
7	0x3d97dbbb	0.07414957
8	0xbfefe958	-1.8743086
9	0xbf39c6c4	-0.7256892
10	0xbf8d5b22	-1.1043437
11	0x3f96368c	1.1735396
12	0xbfb7fc77	-1.4373921
13	0x3f8020d2	1.0010016
14	0xbfab4bed	-1.3382546
15	0xbf30baf6	-0.6903528
16	0xbdbcef92	-0.09225382
17	0x3f3102e8	0.6914506
18	0xbfee9d16	-1.8641689
19	0x3e2cb115	0.16864426
20	0x3fb8ba37	1.4431828
21	0xbf1bc071	-0.6084052
22	0xc00c1d26	-2.189279
23	0xbfa134cb	-1.2594236
24	0xbfb327ee	-1.399656
25	0x3f2b19e4	0.6683638
26	0x403a217f	2.9082944
27	0xbeb34dbd	-0.35020247
28	0x3f8a47aa	1.080312
29	0xbf29ba01	-0.66299444
30	0x3f94c133	1.162146
31	0x3f49901d	0.78735524
32	0xbefc9186	-0.49329776
33	0xbede7183	-0.43445978
34	0xbf3ed253	-0.7453968
35	0x3d4ddca2	0.05025924
36	0xbf58c4e8	-0.84675455
37	0xbf6fe416	-0.93707407
38	0xbe4bec1c	-0.19914287
39	0xbeb69849	-0.3566306
40	0x3f279d1d	0.6547411
41	0x3f93ca7f	1.1546172
42	0x3c45847e	0.012055514
43	0x3f8e8130	1.1133175
44	0x3ebcb86c	0.36859453
45	0xbf68498d	-0.9073723
46	0x3fcad026	1.5844772
47	0x3e118510	0.14210916
48	0x3ec72fbb	0.38903603
49	0x4024dad9	2.5758574
50	0x3ecdc03f	0.40185735
51	0xc011abb7	-2.2761056
52	0x3fd98787	1.6994485
53	0x3fb44432	1.4083312
54	0xbf9993fe	-1.1998289
55	0x3f30b129	0.69020325
56	0x4060f1b9	3.5147536
57	0x3ff38006	1.9023445
58	0x400c2dc0	2.1902924
59	0xbfe1bc9d	-1.7635685
60	0x3e7c01ff	0.24610136
61	0xbfa7dbc3	-1.3113941
62	0x3fff4c56	1.9945171
63	0xc01c9b0e	-2.4469638
64	0x3f83c21a	1.029361
65	0x3e3b750a	0.18306366
66	0x3ef0c28a	0.47023422
67	0xbf923467	-1.1422242
68	0xbf008f1b	-0.5021836
69	0x3f1a9091	0.6037684
70	0x3e6e1010	0.23248315
71	0xbc914ef8	-0.01773785
72	0xbf451c71	-0.76996523
73	0xbed7ce0c	-0.4214939
74	0xbea39837	-0.31952068
75	0x3efbf047	0.49206755
76	0xbefd76ae	-0.49504608
77	0x3ff748ce	1.9319093
78	0xbf4037b6	-0.7508501
79	0x3e3cab60	0.1842475
80	0xbf3f9d80	-0.748497
81	0x3fa37703	1.2770694
82	0xbebd4e70	-0.36973906
83	0xbf253acf	-0.6454286
84	0x3efbecf5	0.4920422
85	0x3f4cf034	0.8005402
86	0x3fb0c478	1.3809958
87	0xbdb40232	-0.08789481
88	0xbf0af817	-0.54284805
89	0x3e1ed16a	0.15509573
90	0x401cea13	2.4517868
91	0xbf4582e8	-0.7715287
92	0x3f1917e3	0.59802073
93	0xbf34234b	-0.7036635
94	0x3fb4d19c	1.4126468
95	0x3f8b7821	1.0896035
96	0x3f2d88de	0.6778697
97	0xbe3774ef	-0.179157
98	0xbfa554af	-1.2916468
99	0x3fceed54	1.6166177
100	0xbf710827	-0.94153064
101	0xbe0e5da2	-0.13902906
102	0x3eaf4f34	0.34240115
103	0x3f8a3b9c	1.0799441
104	0xbf425243	-0.7590677
105	0x3fd3269d	1.6496159
106	0xbe82481d	-0.25445643
107	0xbffcc7ae	-1.9748437
108	0x3f453cba	0.77045786
109	0xbf336e53	-0.70090216
110	0xbf0b786e	-0.54480636
111	0x3eb0a157	0.34498093
112	0x3e6b44b0	0.22975421
113	0xbf07381b	-0.52819985
114	0xbf7b1ece	-0.9809388
115	0x40568694	3.351964
116	0x3f8f2762	1.1183894
117	0xbfe4083f	-1.7815017
118	0x3fd26bf3	1.6439193
119	0xbef364f7	-0.47537968
120	0xbef43c20	-0.47702122
121	0x3f4544c0	0.7705803
122	0xbe031d5a	-0.12804165
123	0x3efacec9	0.4898589
124	0xbebf6709	-0.37383297
125	0x3f57f3f7	0.84356636
126	0x3dcf3624	0.101177484
127	0xbfedeea8	-1.8588457
128	0x3f0418d3	0.5160038
129	0xbf8c3af3	-1.095549
130	0x3f12a139	0.57277256
131	0x3fda00c5	1.7031485
132	0xbfe99360	-1.82481
133	0xbfe55656	-1.7916973
134	0x3e05eb65	0.13078077
135	0x3e2cb6a6	0.1686655
136	0xbfca60c5	-1.5810782
137	0xbf9b259c	-1.2120852
138	0xbf810e60	-1.0082512
139	0x3d5cadc8	0.05387667
140	0xbed3bae8	-0.41353536
141	0x3f74942c	0.9553859
142	0x3f555265	0.8332885
143	0xbea5d5fd	-0.32389823
144	0x3d6f3a81	0.058405403
145	0x3f00e06c	0.5034244
146	0x3ee96cea	0.45590907
147	0xbf1af55a	-0.60530627
148	0x3f0b3937	0.5438418
149	0xbfd9ebc3	-1.7025074
150	0xbe5326a3	-0.20620207
151	0x3f1a6763	0.60314006
152	0x4024d51b	2.575507
153	0x3d4eb9b6	0.050470077
154	0xbf592539	-0.8482242
155	0x3f778703	0.96690387
156	0xbf3c3c20	-0.73529243
157	0xbf1ab282	-0.6042863
158	0x3f4e7103	0.8064119
159	0x403a729b	2.913245
160	0xbd69fba5	-0.057124753
161	0xbdd4023a	-0.10351987
162	0x3d884582	0.066538826
163	0x3ed72da6	0.42027014
164	0x3f75691f	0.9586353
165	0x3f214a96	0.63004434
166	0xbf6556d6	-0.89585626
167	0x4002b109	2.0420554
168	0xbfa2d5c7	-1.272149
169	0x3eb56ac2	0.35433012
170	0xbf0a644d	-0.54059297
171	0x3e93bbf2	0.28854328
172	0xbed316cd	-0.41228333
173	0xbe1004ec	-0.14064378
174	0x3fa199f2	1.2625105
175	0xbfc5dc05	-1.545777
176	0x3fe65a23	1.7996258
177	0x3f692e6d	0.91086465
178	0x3eac2b44	0.3362676
179	0xbf379ce9	-0.717238
180	0x3eb1409d	0.3461961
181	0xbec65193	-0.3873411
182	0x3f245d0c	0.6420448
183	0xbe6f4fbc	-0.2337026
184	0xbede1080	-0.43371964
185	0x3be26dc2	0.006910057
186	0x3e859c5e	0.2609586
187	0x3f2152b6	0.6301683
188	0x3fa2dd70	1.2723827
189	0xbf976e8a	-1.1830609
190	0x3f3fcd2d	0.7492245
191	0xbf390c34	-0.72284245
192	0xbf9c78d8	-1.2224379
193	0x3e38d85e	0.18051288
194	0xbfaa75eb	-1.3317236
195	0xbe9ee3af	-0.31033084
196	0xbf11c9c6	-0.56948507
197	0x3e7ce6e1	0.24697448
198	0xbf89e3bc	-1.0772624
199	0x3e20929c	0.15680927
200	0xbf430f3a	-0.7619511
201	0xbf28b94b	-0.65907735
202	0xbf9657e7	-1.1745576
203	0xbe69c583	-0.22829251
204	0x3ea01880	0.31268692
205	0x3f50250d	0.81306535
206	0x3f9d26a0	1.2277412
207	0x3f5c967e	0.8616713
208	0x3dc8f783	0.09812834
209	0x3fbe44bb	1.4864725
210	0xbd7c56e6	-0.06160631
211	0xbf981747	-1.1882104
212	0x3edc492b	0.43024573
213	0xbf75f057	-0.96069854
214	0x3e6efbfd	0.23338313
215	0xbe6715e1	-0.2256694
216	0x3e036b90	0.12834
217	0xbfd3d648	-1.6549768
218	0x3f01bc21	0.50677687
219	0x3fa482c2	1.2852404
220	0xbfaa0829	-1.328374
221	0xbdf59797	-0.11991804
222	0xbf187766	-0.5955719
223	0xbf0ed609	-0.5579534
224	0xbfaad8d4	-1.3347421
225	0x3ec944b9	0.39310244
226	0x3eefe44a	0.46853858
227	0x3ee4700e	0.4461674
228	0xbfa914a9	-1.320943
229	0x3eb0ecfc	0.34555805
230	0x3f9eba87	1.2400674
231	0x3e964f26	0.2935726
232	0x3d27b40b	0.040943187
233	0x3fb36b0c	1.4017043
234	0x3ff56caa	1.9173787
235	0x3ec75e3e	0.3893909
236	0x3eea01e0	0.45704556
237	0x3e1713c7	0.14753638
238	0x3f343aa7	0.70401996
239	0xbfd241d7	-1.6426343
240	0xbf41869c	-0.7559602
241	0x3ec6d917	0.388375
242	0xbf2a65dc	-0.66561675
243	0xbec5a559	-0.38602713
244	0xbf1e7de1	-0.61910826
245	0x3f32a9b8	0.6979022
246	0x3eb9503e	0.36194032
247	0xbee9b5a7	-0.45646402
248	0xbe40438b	-0.18775766
249	0x3f669cce	0.90083015
250	0xbf8d99b5	-1.1062533
251	0xbf585602	-0.8450624
252	0xc01a4bf5	-2.410886
253	0xbf0a7778	-0.54088545
254	0xbf578cbd	-0.84199125
255	0xbfd229d4	-1.6419015

decoder_embedding.weight f4 [30, 32]
0	0x3f07a27a	0.52982295
1	0x3f4f6477	0.8101267
2	0x3e7aff01	0.24511339
3	0xbdf41459	-0.119179435
4	0x3f3ccfa7	0.7375435
5	0x3e8b82dc	0.27248275
6	0xbf0ef028	-0.558352
7	0xbfc0800a	-1.5039074
8	0xbfec408d	-1.8457199
9	0xbfbd4e85	-1.4789587
10	0xbf23941c	-0.6389787
11	0xbf380c56	-0.71893823
12	0x400c231b	2.1896427
13	0xbec17fc1	-0.3779278
14	0xbee20812	-0.44146782
15	0xbe91fd42	-0.28513533
16	0xbf71cf46	-0.944569
17	0xbf43f570	-0.7654638
18	0xbce1d444	-0.027567036
19	0x3d134e1e	0.03596317
20	0x3f861185	1.0474097
21	0x3f199adb	0.60001916
22	0x402cbebc	2.6991415
23	0xbfd98c65	-1.699597
24	0xbf1e7253	-0.61893195
25	0xbef781c3	-0.48341188
26	0xbf780df4	-0.9689629
27	0xbd2bd506	-0.0419512
28	0xbebea727	-0.37236902
29	0x3c019760	0.007909626
30	0x3f8cff66	1.1015441
31	0x3c7a451c	0.015275266
32	0xbf738553	-0.9512531
33	0xbf815c3e	-1.0106275
34	0xbf62b0e5	-0.8855117
35	0xbecfe66c	-0.40605485
36	0xbf832f5a	-1.0248826
37	0xbfac5144	-1.34623
38	0xbe6cf250	-0.2313931
39	0x3f8ca201	1.098694
40	0x3f746ac6	0.95475423
41	0xbf03953f	-0.51399606
42	0x3e43352b	0.1906325
43	0xbf46e6d1	-0.7769595
44	0x3c8f8168	0.01751776
45	0x3d09d638	0.03365156
46	0xbf0d7917	-0.55262893
47	0xbfb43268	-1.4077883
48	0x3e2b8ff6	0.16754135
49	0x3fa10c77	1.2581929
50	0xbf61c899	-0.8819671
51	0xbe8155a2	-0.25260645
52	0x3fc3398a	1.5251935
53	0xbe62079d	-0.22073217
54	0x3ed67d21	0.4189234
55	0x3f701b47	0.9379162
56	0xc01fb3eb	-2.4953563
57	0x3fa0de4e	1.2567842
58	0xbe69551e	-0.22786376
59	0x3f7aa216	0.97903574
60	0xbef5dad9	-0.4801853
61	0x3f7d3d04	0.9892123
62	0x3f6f705b	0.93530816
63	0x3f148dcc	0.58028865
64	0x3f9a8461	1.2071649
65	0x3f9d1e7b	1.2274927
66	0x3f7f04c6	0.9961666
67	0x3fa27b9c	1.2693973
68	0xbf87a459	-1.059703
69	0x3e7fd5f0	0.24983954
70	0xbf9d170d	-1.227266
71	0xbe3e7741	-0.1860018
72	0x3f700636	0.9375948
73	0xc00f31c2	-2.237412
74	0xbf4799d2	-0.77969086
75	0xbf7c3dc8	-0.9853177
76	0x3f0524ad	0.5200909
77	0x403b7983	2.9292915
78	0xbf109fe8	-0.56494
79	0x3e88869f	0.26665208
80	0x3f9693ce	1.1763856
81	0x3f811df1	1.0087262
82	0x3e0c2fb3	0.13690071
83	0xbf135759	-0.57555157
84	0xbe6e04c7	-0.2324401
85	0x3f1d0c26	0.6134666
86	0xbecfe596	-0.40604848
87	0xbe9b9348	-0.30385804
88	0x3fcc76c6	1.5973747
89	0x3f8311e6	1.0239837
90	0xbf7f1f26	-0.99656904
91	0x3d2b262d	0.041784454
92	0x3fa3348a	1.2750409
93	0xbfa0ea7e	-1.2571561
94	0x3f8014d1	1.0006353
95	0xbf859110	-1.0434895
96	0x3f625161	0.88405424
97	0xbfbdd672	-1.4831069
98	0xbff67f46	-1.9257591
99	0x3f670a9b	0.9025056
100	0x3f0a1c0a	0.53949034
101	0x3f002287	0.50052685
102	0x3ed456cd	0.41472474
103	0xbf04528f	-0.51688474
104	0xbf32b91f	-0.6981372
105	0x3efdfbb9	0.49606112
106	0x3f90e25d	1.131908
107	0xbe947f92	-0.29003578
108	0xbf539781	-0.8265305
109	0xbf45e51a	-0.77302706
110	0xbe3f8acb	-0.18705289
111	0x3e2db9f5	0.16965468
112	0x3eace04a	0.3376487
113	0xbf4b5923	-0.79432887
114	0xbf5896c9	-0.8460508
115	0x3fa49f85	1.2861181
116	0xbf85e792	-1.0461295
117	0x3ed17f0a	0.40917236
118	0xc001522f	-2.020641
119	0xbefea00f	-0.4973149
120	0xbf3d0134	-0.7382996
121	0xbf56cf02	-0.8390962
122	0xbf915ad3	-1.1355842
123	0xbf979ad2	-1.1844122
124	0x3eb35135	0.35022894
125	0xbec526b9	-0.38506106
126	0x3f12d036	0.57348955
127	0xbf4aba74	-0.79190755
128	0x3fa83744	1.3141866
129	0xbf6e85be	-0.93172824
130	0x3f724381	0.9463425
131	0xbff75f34	-1.9325929
132	0x3e6434e6	0.22285804
133	0xbe1c376a	-0.15255514
134	0xbe3c6988	-0.18399632
135	0xbf41cbaf	-0.7570142
136	0x3e8b7c26	0.27243155
137	0x3f518d0c	0.81855845
138	0x3f39e431	0.7261382
139	0x3e81dd6d	0.25364247
140	0x3da0a578	0.07844061
141	0x3f344e16	0.7043165
142	0xbf99ef8f	-1.2026232
143	0xbee541b6	-0.44776696
144	0x3f72c462	0.94830906
145	0xbfd16f49	-1.6362087
146	0x3f07ea2b	0.53091687
147	0xbf003538	-0.50081205
148	0xbf1c9bf3	-0.6117546
149	0xbf890edf	-1.0707663
150	0x3f16683e	0.5875281
151	0x3e7c0806	0.24612436
152	0x3f0d8749	0.55284554
153	0x3e210855	0.15725835
154	0x3f24054f	0.640706
155	0xbea39fcc	-0.31957853
156	0xbe25738c	-0.16157359
157	0xbe8dba11	-0.2768102
158	0xbfc9cb61	-1.5765191
159	0x3d178332	0.036990352
160	0xbfc5f6fa	-1.5465996
161	0xbfd5ee5c	-1.6713367
162	0xbedbbd4c	-0.4291786
163	0x3f39c239	0.72561985
164	0x3fcec036	1.6152408
165	0x3fc3e2a0	1.5303535
166	0x3fdf0016	1.7421901
167	0xbe00fc40	-0.12596226
168	0xbdfb859d	-0.12281344
169	0x3f617a31	0.88077074
170	0xbeec2790	-0.46123934
171	0x3f40a743	0.7525522
172	0xbfb1fa39	-1.3904487
173	0xbf06d17f	-0.52663416
174	0x3f81d6d4	1.0143685
175	0xbf3337e2	-0.70007145
176	0xbff7d3bb	-1.936149
177	0xbf608547	-0.87703365
178	0xbeeb733b	-0.4598635
179	0x3f837896	1.0271175
180	0xbed2c749	-0.41167668
181	0xbdaf59ed	-0.08562074
182	0x3f51404f	0.8173875
183	0xbe9b4a5f	-0.30330178
184	0xbf554782	-0.8331224
185	0x3e737cef	0.23778127
186	0x3f142135	0.5786317
187	0xbf4b8ed0	-0.7951479
188	0x3ed9a4a2	0.42508417
189	0xbf354774	-0.70812154
190	0x3d28b384	0.041186824
191	0xbfb5c22b	-1.419988
192	0x3e64d382	0.22346309
193	0x3e79b53c	0.24385542
194	0xbf637aa9	-0.8885904
195	0x3fc748ce	1.5569093
196	0xbec08806	-0.37603778
197	0xbd01fa47	-0.031732824
198	0xbf845c12	-1.0340598
199	0xbf01a4f2	-0.5064231
200	0x3ef10119	0.4707115
201	0x3ef840a3	0.48486814
202	0xbe7b422a	-0.24536958
203	0x3f5cae0d	0.8620308
204	0xbf0fbb83	-0.56145495
205	0xbeff067c	-0.49809635
206	0x3e404e63	0.18779902
207	0xbf2d36d6	-0.676618
208	0xbe06f32e	-0.13178703
209	0x400d437e	2.2072444
210	0x3e7bd8ac	0.24594373
211	0xbdfadd73	-0.12249269
212	0xbf569fd7	-0.83837646
213	0xbfecaa95	-1.8489558
214	0xbd689f1a	-0.056792356
215	0x3f6dd476	0.92902315
216	0x3f8c6d81	1.0970918
217	0xbbe8367b	-0.0070865727
218	0x3f1c9187	0.6115956
219	0xbf6bad37	-0.9206118
220	0x3f2613fe	0.64874256
221	0x3fc88a95	1.5667292
222	0xbf8ea421	-1.1143838
223	0xbfb3ec34	-1.4056458
224	0xbf9c2c4e	-1.2201021
225	0xbf9a8370	-1.2071362
226	0x3e1497b6	0.14510998
227	0x3f5c09a4	0.8595221
228	0x3f3bfe28	0.73434687
229	0xbe38652b	-0.18007343
230	0x3fd91582	1.6959689
231	0xbfca959a	-1.5826905
232	0xbf9e0937	-1.2346562
233	0x3ee7e635	0.45292822
234	0xbf4f53eb	-0.80987424
235	0x3dd47023	0.10372951
236	0xbe822fe5	-0.25427166
237	0x3d2ae749	0.041724477
238	0x3db5db0d	0.08879671
239	0x3f815a16	1.0105617
240	0x3f022381	0.50835425
241	0xbf13ea7d	-0.57779676
242	0x3eb8914a	0.36048347
243	0xbe5b51de	-0.21417949
244	0x3f5700a6	0.83985364
245	0xbe48fb52	-0.19627121
246	0x3f4135d6	0.7547277
247	0x3f3c0e6d	0.7345951
248	0x3f049a30	0.5179777
249	0x3ef16f8b	0.47155413
250	0xbf014411	-0.50494486
251	0xbf045f4c	-0.5170791
252	0xbf385ffd	-0.72021466
253	0xbf50d4c0	-0.8157463
254	0xbe9143f8	-0.2837217
255	0xbf92c947	-1.1467675

encoder.weight_ih_l0 f4 [64, 32]
0	0xbecf4fb5	-0.404905
1	0x3da9cb1d	0.08290694
2	0x3cdcbb72	0.02694485
3	0xbde637d9	-0.11241121
4	0xbe1d2756	-0.15347037
5	0xbe61311a	-0.21991387
6	0xbe87ee9a	-0.26549226
7	0xbc683a5e	-0.014174072
8	0xbcd7b637	-0.026332004
9	0x3f1f44da	0.62214434
10	0xbf78e41a	-0.97223055
11	0x3f0a91b3	0.5412857
12	0xbde0ee5a	-0.10982962
13	0xbdf0966f	-0.11747443
14	0xbf24f1be	-0.6443137
15	0x3e959aa4	0.29219544
16	0x3e9d5018	0.3072517
17	0x3d99bae5	0.075063504
18	0x3cf64448	0.030061856
19	0xbe83dcee	-0.25754493
20	0x3e1b470d	0.15163822
21	0x3eb6ca93	0.35701427
22	0x3e884f7c	0.26623142
23	0xbeeb5159	-0.459605
24	0xbe76347e	-0.24043462
25	0x3ea4a0de	0.32153982
26	0x3d78cdbb	0.060743075
27	0xbdf1c3e5	-0.11804942
28	0xbcc30cfe	-0.023809906
29	0x3e0498e0	0.12948942
30	0x3e80ddbe	0.25169176
31	0x3d8a4527	0.06751471
32	0xbf06ebcd	-0.52703553
33	0xbe3c1759	-0.18368281
34	0xbefa537c	-0.4889182
35	0xbd18f50d	-0.037343074
36	0x3ea90566	0.3301193
37	0xbcffd7f5	-0.031230906
38	0xbdddd115	-0.10830895
39	0xbebbe78d	-0.36700097
40	0x3e454ecb	0.19268338
41	0xbf53b3d7	-0.8269629
42	0xbe8f6360	-0.28005505
43	0xbc01b612	-0.007916944
44	0xbdacbd21	-0.08434511
45	0xbe84f771	-0.25970033
46	0x3e96d3c4	0.2945844
47	0x3e2ca8c3	0.16861252
48	0x3e92d7ba	0.2868021
49	0x3d45345b	0.048145633
50	0x3d666a61	0.056253795
51	0xbe62990c	-0.22128695
52	0xbcffd5ea	-0.031229932
53	0xbe9b12e3	-0.30287847
54	0xbed70228	-0.41993833
55	0x3ece77f4	0.40325892
56	0x3e604719	0.21902122
57	0x3e443394	0.191603
58	0xbe35f207	-0.17768107
59	0xbe663117	-0.22479664
60	0x3e18976d	0.14901514
61	0xbe3c39c4	-0.18381411
62	0xbe2e834b	-0.17042272
63	0xbd84c796	-0.064833805
64	0xbdf15c21	-0.1178515
65	0x3eadcf87	0.33947393
66	0xbe450a3c	-0.19242185
67	0xbd3bc174	-0.04583879
68	0x3e1d1a82	0.15342143
69	0x3da31c8e	0.07964431
70	0x3e1187eb	0.14212005
71	0xbc93ed6f	-0.018057553
72	0xbc31d35f	-0.010853617
73	0xbe65beb4	-0.22436029
74	0x3e8249c9	0.2544692
75	0xbd8d3973	-0.06895723
76	0x3d35daa6	0.044397973
77	0x3e03eb9d	0.12882848
78	0x3d0d3dee	0.03448289
79	0xbddf0412	-0.10889448
80	0x3dd6c713	0.10487189
81	0x3d6e3400	0.05815506
82	0x3db0d8ef	0.08635127
83	0xbdd3fbe6	-0.1035078
84	0xbe1e166a	-0.15438238
85	0x3dd6f606	0.10496144
86	0xbc10e647	-0.008843965
87	0xbe2f1a56	-0.1709989
88	0xbc577e5c	-0.013152685
89	0xbe10a9fc	-0.14127344
90	0xbcbc2378	-0.022966132
91	0xbe069113	-0.13141279
92	0xbe27a1fe	-0.16370389
93	0xbe6768bd	-0.22598548
94	0x3ad9c99b	0.0016615869
95	0xbd92551d	-0.0714514
96	0xbe12145f	-0.14265583
97	0x3e45f9a6	0.19333515
98	0x3e8d1584	0.27555478
99	0xbd129b7a	-0.035792805
100	0x3efdd7ae	0.49578613
101	0x3eaf8565	0.3428146
102	0xbe4f6ce1	-0.20256378
103	0x3d5fb085	0.0546117
104	0x3e3a7d9c	0.18211979
105	0xbe0d3a22	-0.13791707
106	0x3e896a5a	0.26838952
107	0x3d714bc5	0.05891015
108	0xbd7544f1	-0.0598802
109	0x3c15266c	0.009103399
110	0x3db7fdcd	0.089839555
111	0x3da16630	0.07880819
112	0x3e4faf0f	0.20281623
113	0x3d2d8ac0	0.04236865
114	0xbca2f3e3	-0.019891685
115	0xbc07008c	-0.0082398765
116	0x3e133ee4	0.1437946
117	0x3c95ee87	0.018302215
118	0xbc34c65f	-0.0110336235
119	0xbe428892	-0.1899741
120	0x3e68bdc9	0.22728647
121	0x3e6ab856	0.22921881
122	0x3e9f497d	0.31110755
123	0xbe3078a7	-0.17233525
124	0xbdfc08c2	-0.12306358
125	0xbdae9b39	-0.085257
126	0x3e3f82ee	0.1870229
127	0x3d526cd8	0.051373333
128	0x3dd1d0e9	0.102449246
129	0x3dcab738	0.098982275
130	0x3edbaaa1	0.42903617
131	0x3ecf3502	0.4047013
132	0x3e97b589	0.29630688
133	0x3e8c3021	0.2738047
134	0x3e96f096	0.29480428
135	0xbe514f38	-0.20440376
136	0xbce0bc23	-0.02743346
137	0xbe997530	-0.2997222
138	0x3e2f3267	0.1710907
139	0xbbe7ad92	-0.0070702517
140	0x3e6f50f8	0.23370731
141	0xbed37081	-0.4129677
142	0xbeaf1643	-0.34196672
143	0x3d9d8e1f	0.07693123
144	0xbe03fcb3	-0.12889366
145	0xbeecb51f	-0.46231934
146	0xbec53b8f	-0.38522002
147	0x3ed4f5ff	0.4159393
148	0xbec966a6	-0.39336127
149	0xbedd2e7a	-0.4319952
150	0x3f11d6f0	0.56968594
151	0xbd8a27ab	-0.06745847
152	0xbdc5f16f	-0.096651904
153	0x3e7da40b	0.24769609
154	0xbe672998	-0.2257446
155	0x3f01f3b2	0.50762475
156	0xbe5ba9ad	-0.21451445
157	0x3e5547fc	0.20828241
158	0xbdf3a154	-0.11896005
159	0x3d4961f2	0.049165674
160	0xbe3de811	-0.18545558
161	0xbedd309d	-0.43201151
162	0x3ea3ac7a	0.31967527
163	0x3f1e38d7	0.6180548
164	0x3d99b4be	0.07505177
165	0x3eb07691	0.3446546
166	0x3e76fae7	0.24119149
167	0xbd796470	-0.0608868
168	0xbee80b90	-0.4532132
169	0xbe5a4f7e	-0.21319386
170	0xbe88a35a	-0.26687127
171	0x3c9b732e	0.01897582
172	0x3d42665c	0.0474609
173	0xbdfc4f81	-0.12319852
174	0xbcd79f8e	-0.026321199
175	0xbdd46adb	-0.103719436
176	0x3ea47747	0.3212225
177	0xbe854b34	-0.26033938
178	0x3e7a923e	0.2446985
179	0x3ed2715f	0.4110212
180	0x3ea880ec	0.3291086
181	0xbf89b72d	-1.0759026
182	0x3ee49122	0.44641978
183	0xbe2aa109	-0.16662993
184	0xbe49b568	-0.19698107
185	0x3f1ad075	0.6047433
186	0xbec9bbf0	-0.39401197
187	0x3f0a70ae	0.54078186
188	0x3d1f4119	0.03888044
189	0x3b517dc7	0.0031965838
190	0xbe87376f	-0.2640948
191	0xbebd68b5	-0.36993948
192	0x3e848dc3	0.25889406
193	0xbd5e7e8c	-0.054319903
194	0x3d802d7c	0.062586755
195	0x3d81d162	0.06338765
196	0xbdd76bfa	-0.10518642
197	0x3df1c9bd	0.11806057
198	0xbe0a96d1	-0.13534094
199	0xbe0f0a0e	-0.1396868
200	0x3cef3fe1	0.029205265
201	0xbe3c12f9	-0.18366612
202	0x3e77075f	0.24123906
203	0xbe0e2888	-0.13882649
204	0xbe534b0c	-0.20634097
205	0x3f12708a	0.5720297
206	0x3e1ca298	0.152964
207	0x3d92a056	0.07159488
208	0xbd21d751	-0.039511982
209	0x3d66062c	0.05615823
210	0x3e7a2006	0.24426278
211	0x3e86b2fe	0.26308435
212	0xbd39ad86	-0.0453315
213	0x3c7fd2e3	0.015614244
214	0xbec762b3	-0.3894249
215	0x3e6be5f6	0.23036942
216	0x3e5d9104	0.2163735
217	0x3e478677	0.19484888
218	0x3cb38480	0.021913767
219	0xbe45a417	-0.19300877
220	0x3dad7b9d	0.08470843
221	0xbe22dd22	-0.15904668
222	0x3f1dad99	0.61593014
223	0xbcc52d64	-0.024069495
224	0x3e10a2ca	0.14124599
225	0x3cc61ba5	0.024183104
226	0x3e5ead1a	0.2174572
227	0xbed26b26	-0.41097373
228	0xbe6b58e4	-0.22983128
229	0xbdcfb131	-0.101412185
230	0xbe7a93e3	-0.24470477
231	0x3e7caf97	0.24676357
232	0x3cd02da0	0.02541238
233	0x3e2e1193	0.16998892
234	0x3e7054eb	0.23469894
235	0x3e031835	0.12802203
236	0x3d8bb435	0.06821481
237	0x3e5c3510	0.21504617
238	0x3e90d1d7	0.28285095
239	0x3ce0a505	0.027422437
240	0x3e2d3a59	0.16916789
241	0xbc9227c8	-0.017841235
242	0x3e4594dd	0.19295068
243	0xbe12570f	-0.14291023
244	0x3e25fb94	0.1620925
245	0xbd322237	-0.04348966
246	0xbd586b09	-0.05283645
247	0x3e293c5e	0.16526935
248	0xbd2c9e25	-0.042143006
249	0xbd007ff8	-0.03137204
250	0x3e922679	0.28544977
251	0x3def2a80	0.11678028
252	0xbebbe0c5	-0.36694923
253	0xbdad5393	-0.08463206
254	0xbd445c56	-0.04793962
255	0xbdcc20cd	-0.09967194

encoder.weight_hh_l0 f4 [64, 16]
0	0xbe63d356	-0.22248587
1	0x3dd7f8c3	0.105454944
2	0xbe8e4036	-0.27783364
3	0xbdce41f5	-0.10071174
4	0x3cebabda	0.028768469
5	0xbd8da376	-0.06915943
6	0xbea63bab	-0.32467398
7	0x3ebb092a	0.3653043
8	0x3e9ce1cd	0.30641022
9	0xbe97702e	-0.29577774
10	0xbe7b433c	-0.24537367
11	0x3e8d24f8	0.27567267
12	0x3ee844b5	0.4536492
13	0xbbc7a15a	-0.0060922327
14	0x3e464fe5	0.19366415
15	0x3c169178	0.009189956
16	0xbe331649	-0.1748897
17	0x3f0f41ae	0.55959594
18	0xbda762b2	-0.081731215
19	0xbf14b542	-0.5808908
20	0xbf0adabd	-0.5424002
21	0xbcecc181	-0.028900864
22	0xbf160c57	-0.5861258
23	0x3f5589c6	0.8341335
24	0x3e4e1dcc	0.20128554
25	0xbe324c93	-0.17412023
26	0xbe8a0b80	-0.269619
27	0x3e13d71f	0.14437531
28	0x3f314fe8	0.6926255
29	0xbe9abb36	-0.30220956
30	0xbdbb9226	-0.09158735
31	0xbf16ec54	-0.5895436
32	0x3e1eecaf	0.15519975
33	0x3d93b0f8	0.072114885
34	0x3e2db79d	0.16964574
35	0xbdc1deb2	-0.09466304
36	0x3e5f67cf	0.21816944
37	0xbd9f1a55	-0.07768694
38	0x3d97479f	0.073867075
39	0x3e981d82	0.29710013
40	0xbe1865f5	-0.14882644
41	0xbe0c81ed	-0.13721438
42	0x3e74956d	0.23885126
43	0x3d2c82cd	0.04211693
44	0xbdd916d2	-0.10600056
45	0xbdd99ceb	-0.10625633
46	0x3ed6a675	0.41923872
47	0x3e59e6f4	0.21279508
48	0x3eb05ce8	0.34445882
49	0x3f67755a	0.9041344
50	0xbef08483	-0.46976098
51	0xbf04e26e	-0.51908004
52	0x3e6b3d60	0.22972631
53	0x3e5a9864	0.21347195
54	0x3e025560	0.1272788
55	0x3f37e20e	0.7182931
56	0x3e7e1c6f	0.24815534
57	0xbedf4db1	-0.4361396
58	0xbf082213	-0.53176993
59	0x3eb2312f	0.3480315
60	0x3e4ddbd9	0.20103396
61	0xbefb3b9a	-0.4906891
62	0xbe7b54ec	-0.24544114
63	0x3e04b62a	0.12960115
64	0xbcfed60d	-0.031107927
65	0x3e010653	0.12600069
66	0xbd2091cb	-0.03920154
67	0xbeb82047	-0.35962126
68	0x3f0aa8b0	0.54163647
69	0x3dbeb58c	0.09311971
70	0xbdd0d11a	-0.10196133
71	0x3ef34af9	0.47518137
72	0xbe12d6c4	-0.14339739
73	0xbd489424	-0.048969403
74	0x3c960f1c	0.018317752
75	0x3d83ad9d	0.064295985
76	0x3da1f036	0.07907145
77	0xbeda9030	-0.4268813
78	0xbe3db4ec	-0.18526047
79	0xbdd2b04a	-0.10287531
80	0xbe710d63	-0.23540263
81	0x3ea0526b	0.3131288
82	0x3d074029	0.033020172
83	0xbee052e9	-0.43813255
84	0x3d62de56	0.055387817
85	0x3dd804bd	0.10547779
86	0xbe585f47	-0.21130095
87	0x3e88a12d	0.26685467
88	0x3c232329	0.009957113
89	0x3d984e87	0.07436853
90	0xbedd4526	-0.4321682
91	0x3c3039cd	0.010755968
92	0x3e4319c7	0.19052802
93	0xbede83ee	-0.4346003
94	0xbe314f9b	-0.17315523
95	0x3daed443	0.085365795
96	0xbe003070	-0.12518477
97	0x3d1451df	0.03621089
98	0x3d835674	0.06412974
99	0x3e0fbfc6	0.14038
100	0xbe88fe78	-0.26756644
101	0x3c1aa43e	0.009438572
102	0x3ecf4503	0.4048234
103	0xbc5c0361	-0.01342854
104	0x3df79c48	0.12090355
105	0x3d5f47cb	0.054511826
106	0xbe36c64f	-0.17849086
107	0xbba79d03	-0.005115153
108	0x3e9e3662	0.30900866
109	0x3e65f5ac	0.22456998
110	0x3e158323	0.14600806
111	0xbe99a01f	-0.30004975
112	0x3e0e3f40	0.13891315
113	0xbe7f2f28	-0.24920332
114	0x3df8b1ff	0.12143325
115	0xbe91b275	-0.28456464
116	0x3e858f0e	0.26085705
117	0xbc9c2593	-0.019060886
118	0x3e98086e	0.2969393
119	0x3ea1e264	0.31618035
120	0xbd02af86	-0.031905673
121	0xbe81ec7c	-0.25375736
122	0x3e19c2ea	0.1501576
123	0x3c29ad51	0.010356263
124	0xbd87d33e	-0.06632088
125	0x3ddb3a08	0.10704428
126	0xbc8a38cd	-0.016872788
127	0x3da03f68	0.07824594
128	0xbdddbe5c	-0.10827324
129	0xbd96a6f4	-0.073560625
130	0x3d2ae658	0.04172358
131	0xbd23569f	-0.03987753
132	0xbe9b1a85	-0.3029367
133	0x3e901cf8	0.281471
134	0xbe22b372	-0.15888765
135	0x3eed502f	0.46350238
136	0x3f23e97d	0.6402815
137	0xbe30b1aa	-0.17255273
138	0xbe516efc	-0.20452493
139	0x3cde89da	0.027165342
140	0x3ea7b2d3	0.3275362
141	0xbdae22b4	-0.08502713
142	0xbd29cf73	-0.041457605
143	0xbe5f67ed	-0.21816988
144	0x3d08c9cb	0.03339557
145	0x3ede08f3	0.43366203
146	0xbd1a482f	-0.037666496
147	0xbed8e0c1	-0.42358974
148	0x3e30e488	0.17274678
149	0x3e3c458f	0.1838591
150	0xbeb25a1c	-0.34834373
151	0x3f1fbad3	0.62394446
152	0xbe0bbae4	-0.13645512
153	0x3d6e0628	0.05811134
154	0xbecd569d	-0.40105143
155	0x3e331fd6	0.17492613
156	0x3ccc6583	0.024950748
157	0xbeca1fc7	-0.3947737
158	0xbe142a17	-0.14469181
159	0xbdcccecf	-0.10000383
160	0xbe89a8da	-0.26886636
161	0xbd10c350	-0.035342515
162	0xbcf5a763	-0.029987043
163	0xbed1f523	-0.41007337
164	0xbe555ed1	-0.20836951
165	0xbe8be24d	-0.2732109
166	0x3d3c5860	0.04598272
167	0x3ea1f38d	0.31631127
168	0xbbbf4d85	-0.0058380985
169	0x3e927156	0.28602093
170	0xbd0753f8	-0.033039063
171	0x3d59e626	0.053198002
172	0xbea0dbab	-0.31417593
173	0xbe093820	-0.13400316
174	0xbe7d09ae	-0.24710724
175	0xbe3ca52a	-0.1842238
176	0x3c1e4a54	0.009661276
177	0x3eb0757f	0.34464642
178	0xbe3c6e35	-0.18401416
179	0xbe676a5d	-0.22599168
180	0xbde43be3	-0.11144235
181	0xbe539f99	-0.2066635
182	0xbed5c893	-0.41754588
183	0x3ec2e01a	0.380616
184	0xbd1faed6	-0.038985096
185	0xbd96a71f	-0.073560946
186	0xbd183738	-0.037162036
187	0xbe2a5e6e	-0.16637585
188	0x3d7f8494	0.062382296
189	0xbe9a9e03	-0.30198678
190	0xbdffdc10	-0.124931455
191	0x3d41d351	0.047320668
192	0x3d2b64d6	0.04184421
193	0x3e108eca	0.1411697
194	0xbc597267	-0.013271905
195	0x3dea20b1	0.11432017
196	0x3e928260	0.28615093
197	0x3c87d231	0.01657972
198	0xbe42d45d	-0.19026323
199	0x3e84e575	0.25956312
200	0x3e4866e2	0.19570497
201	0x3df0b5c3	0.11753418
202	0x3be2f42c	0.00692608
203	0xbd94ddac	-0.07268843
204	0x3ca9416d	0.02066108
205	0x3d84e4f7	0.06488984
206	0x3e201a4d	0.15635033
207	0x3ca45f39	0.020064937
208	0x3d0abbde	0.03387057
209	0xbe4d481a	-0.20047036
210	0xbdae5022	-0.08511378
211	0xbe54652a	-0.20741716
212	0x3d18469a	0.037176706
213	0x3e30c123	0.17261176
214	0x3e9a9164	0.3018905
215	0xbd86466c	-0.06556401
216	0xbd0f29f3	-0.034952115
217	0x3e026883	0.1273518
218	0x3cbfbaef	0.023404567
219	0xbe6fd4d1	-0.23421027
220	0x3dd77926	0.10521154
221	0xbdba9e4b	-0.09112223
222	0x3dbb7abb	0.09154268
223	0x3ea398af	0.31952426
224	0xbd84d7e9	-0.06486494
225	0xbe8a617a	-0.27027494
226	0x3e255da1	0.16148998
227	0xbea2d33c	-0.31801784
228	0x3bff49a5	0.0077907615
229	0x3cf62f61	0.030051889
230	0x3e17422c	0.14771336
231	0xbd9a7ec7	-0.07543712
232	0x3e649c22	0.22325185
233	0xbe046feb	-0.12933318
234	0x3e157a22	0.14597371
235	0xbd291fd4	-0.04129012
236	0xbe267098	-0.16253889
237	0x3ebd5082	0.36975485
238	0x3b69ca8e	0.003567371
239	0x3e373ae0	0.17893553
240	0x3cde0ee0	0.027106702
241	0x3cf887d4	0.030338205
242	0xbde6d35a	-0.11270781
243	0xbebf00b6	-0.3730523
244	0xbd50b8b8	-0.05095741
245	0x3e8fa318	0.28054118
246	0xbee52dad	-0.4476141
247	0x3ed66105	0.41870895
248	0x3e3a0d75	0.18169196
249	0xbbaf70a0	-0.005354002
250	0xbeb367fe	-0.35040277
251	0x3e3a82d6	0.18213972
252	0x3f0d8583	0.5528185
253	0x3d164ca2	0.036694176
254	0xbdab803b	-0.083740674
255	0x3ed6450a	0.41849548

encoder.bias_ih_l0 f4 [64]
0	0x3ec6157f	0.38688275
1	0x3efcdbff	0.49386594
2	0xbe2bb7eb	-0.16769378
3	0x3f693285	0.9109271
4	0x3f0ad768	0.54234934
5	0x3eb2e279	0.3493841
6	0x3e4b8248	0.19873917
7	0x3f14660f	0.5796823
8	0x3e23c8fa	0.15994635
9	0x3ec30229	0.38087586
10	0x3f28b145	0.6589549
11	0x3e4d5fc4	0.20056063
12	0x3d849587	0.064738326
13	0x3f0e09ad	0.55483514
14	0xbcc78870	-0.02435705
15	0x3eece5ee	0.46269172
16	0x3e06ab51	0.1315129
17	0x3baf696a	0.0053531425
18	0x3e16c359	0.14722957
19	0x3ec52f1d	0.38512507
20	0xbec59233	-0.38588104
21	0xbe23d82f	-0.16000436
22	0xbeacf383	-0.33779535
23	0x3e66491c	0.22488827
24	0xbebc322f	-0.36757037
25	0xbee6f030	-0.45105124
26	0xbecd2093	-0.40063915
27	0xbe480f5d	-0.1953711
28	0x3ed06f28	0.40709805
29	0x3efc54ea	0.49283534
30	0x3dc9d3f9	0.09854884
31	0xbe2d5a2e	-0.16928932
32	0xbbb3af15	-0.005483518
33	0x3e53cd93	0.20683889
34	0x3c015ef4	0.007896174
35	0xbeed252a	-0.46317416
36	0x3dd77e19	0.10522098
37	0xbd817d7e	-0.06322764
38	0xbe144e95	-0.14483102
39	0x3eab7232	0.33485562
40	0xbdeb16af	-0.11478936
41	0xbe6c907e	-0.23101994
42	0xbdf059be	-0.11735867
43	0x3e6ad1a5	0.22931536
44	0x3e8e530c	0.27797735
45	0xbd9fc258	-0.0780074
46	0x3eb21d97	0.347882
47	0xbec457ea	-0.38348323
48	0x3f4f335d	0.8093775
49	0x3f3af871	0.7303534
50	0x3e95edf4	0.29283106
51	0x3f599728	0.8499627
52	0x3f335087	0.7004475
53	0x3f768ded	0.9631031
54	0x3f767279	0.9626842
55	0x3f3334b6	0.70002306
56	0x3f550c88	0.83222246
57	0x3f7ae891	0.9801112
58	0x3f69a492	0.9126674
59	0x3f6db898	0.9285979
60	0x3ec20462	0.3789397
61	0x3f9baa4f	1.2161349
62	0x3ebd686b	0.36993727
63	0x3f74a79c	0.9556825

encoder.bias_hh_l0 f4 [64]
0	0x3db7356e	0.08945738
1	0x3e129b49	0.14317049
2	0x3decc1dd	0.11560414
3	0x3f71889c	0.94349074
4	0x3f16b20b	0.5886542
5	0x3e8bd1f1	0.2730861
6	0x3ec2533e	0.37954134
7	0x3eaa92e1	0.33315185
8	0x3f0c97eb	0.5491931
9	0x3f161e41	0.58639914
10	0x3f42c49c	0.7608125
11	0x3f208059	0.62695843
12	0x3e3fb9ff	0.18723296
13	0x3e17a609	0.14809431
14	0xbe1d577a	-0.15365401
15	0x3e5c64c8	0.2152282
16	0xbe947dfb	-0.29002365
17	0x3e2547eb	0.16140716
18	0xbce99b00	-0.028516293
19	0x3f392830	0.72326946
20	0xbe8de24a	-0.27711707
21	0xbed2b495	-0.41153398
22	0xbde01b89	-0.10942752
23	0x3e5ad99e	0.21372077
24	0xbe6f532e	-0.23371574
25	0xbec6f96c	-0.3886217
26	0xbef2c19e	-0.47413343
27	0xbed9d2df	-0.42543694
28	0x3eb48056	0.35254163
29	0x3eda7986	0.4267084
30	0x3ce5c92a	0.028050024
31	0x3d3744de	0.04474341
32	0x3e55961e	0.20858046
33	0xbe3a1cd0	-0.18175054
34	0xbe28ae1d	-0.16472669
35	0xbf15c277	-0.58499855
36	0xbdee2c61	-0.11629558
37	0x3dd5bb9c	0.10436174
38	0xbd1ab674	-0.037771657
39	0x3ec67988	0.38764596
40	0x3e2891da	0.16461888
41	0xbcf3b45e	-0.029749092
42	0xbe8ea26c	-0.27858293
43	0x3dbcd95c	0.092211455
44	0x3e62b8d5	0.2214082
45	0xbdd1d457	-0.10245579
46	0x3d3fffd8	0.04687485
47	0xbe0fb3a1	-0.14033367
48	0x3f34a58e	0.70565116
49	0x3f887a00	1.0662231
50	0xbc3439c1	-0.011000098
51	0x3f863cf9	1.0487357
52	0x3f82a105	1.0205389
53	0x3f787525	0.9705375
54	0x3f4d96d6	0.8030828
55	0x3f056aad	0.521159
56	0x3f44c885	0.7686847
57	0x3f15f66f	0.5857915
58	0x3f7304e6	0.9492935
59	0x3f7c6fbc	0.98607993
60	0x3e8d5b8f	0.27608916
61	0x3f8c5abb	1.0965189
62	0x3f19e5ee	0.6011647
63	0x3f8dd50c	1.1080642

decoder.weight_ih_l0 f4 [64, 48]
0	0xbd55862e	-0.052129917
1	0x3e5863ae	0.21131775
2	0xbd971af6	-0.07378189
3	0xbd88572f	-0.06657254
4	0xbe18a642	-0.14907172
5	0xbdc1b1b8	-0.09457725
6	0x3e0e09fd	0.13870998
7	0xbc853aaa	-0.016263325
8	0xbc808e3f	-0.015692828
9	0x3cf0b73f	0.029384254
10	0x3df1e162	0.118105665
11	0x3e4fb9ed	0.20285769
12	0x3d313d5a	0.0432714
13	0xbdf77c40	-0.12084246
14	0xbe7c6f91	-0.24651934
15	0x3c4b2438	0.012398772
16	0xbe11101c	-0.14166301
17	0xbe15a0e4	-0.14612156
18	0xbe77221b	-0.24134104
19	0x3e0c4490	0.1369803
20	0xbcd241b4	-0.025666095
21	0xbd2b78a6	-0.041863106
22	0x3d16cfdf	0.036819335
23	0x3c91ed8e	0.01781347
24	0xbe8ac3c3	-0.2710248
25	0x3e799a14	0.24375182
26	0x3dbc6bf1	0.09200276
27	0x3e292a94	0.16520149
28	0x3cc43f34	0.023955919
29	0x3e4fd5e6	0.2029644
30	0xbd454897	-0.04816493
31	0xbc46f2b7	-0.012142829
32	0xbee0a334	-0.43874514
33	0xbcd2a944	-0.025715478
34	0xbebafb71	-0.3651996
35	0xbd44b08d	-0.048019934
36	0x3d74d7aa	0.059775986
37	0xbed3f648	-0.41398835
38	0x3ea4b199	0.32166746
39	0x3d9d9c85	0.07695869
40	0x3f2d0364	0.675833
41	0xbeb0b479	-0.3451269
42	0xbe792404	-0.24330145
43	0x3ebc9c2a	0.36837894
44	0x3ee3d3c5	0.44497505
45	0xbd11b572	-0.03557343
46	0x3dc8e1db	0.098087035
47	0x3d10b644	0.035330072
48	0xbe9b91dd	-0.30384722
49	0x3e4be818	0.19912755
50	0xbd1847ed	-0.03717797
51	0x3da6cdb4	0.081447035
52	0x3eb5bc37	0.3549516
53	0xbb0bee87	-0.002135189
54	0x3e430b3e	0.19047257
55	0xbe42b185	-0.19013031
56	0xbd360a7a	-0.044443585
57	0x3e989623	0.29802045
58	0x3d8f9c83	0.07012274
59	0xbdb1ec2b	-0.086876236
60	0xbd878bfc	-0.06618497
61	0xbd8c3829	-0.06846649
62	0xbc28f459	-0.010312163
63	0x3e43707e	0.19085881
64	0x3c6d7eb6	0.014495542
65	0x3d9ca2c7	0.07648235
66	0xbe0325e1	-0.12807418
67	0xbe3c18bc	-0.1836881
68	0xbd6e84bb	-0.05823205
69	0x3d023449	0.031788144
70	0xbda6a26e	-0.0813645
71	0x3d0dfd0f	0.034665164
72	0xba8dc147	-0.0010815047
73	0x3e356191	0.17713
74	0xbdb7982f	-0.089645736
75	0x3e97b414	0.29629576
76	0x3e497a7b	0.19675629
77	0x3ee1478f	0.43999907
78	0xbe22a45e	-0.15883014
79	0xbd91ed4b	-0.07125338
80	0x3dd421aa	0.103579834
81	0xbdef530a	-0.1168576
82	0xbe8bb215	-0.27284303
83	0xbe3b27c2	-0.18276885
84	0xbecc2b0e	-0.39876598
85	0x3dc0a349	0.09406144
86	0xbe3b4e69	-0.1829163
87	0x3eb96ad1	0.36214307
88	0x3f49053f	0.7852363
89	0xbec3cdb5	-0.3824288
90	0xbed5e0f6	-0.41773194
91	0x3e8c1836	0.2736222
92	0x3df4ce95	0.11953465
93	0xbec3e59a	-0.3826111
94	0xbdd56e63	-0.10421445
95	0xbdf6623c	-0.120304555
96	0xbe65e26a	-0.22449651
97	0xbcdc2f7f	-0.026878117
98	0xbdceb744	-0.10093549
99	0xbe209506	-0.15681848
100	0x3d360cc6	0.044445775
101	0x3e359c33	0.17735367
102	0x3e35a0ce	0.17737123
103	0xbd8fec3a	-0.070274785
104	0x3e7aa8c7	0.24478446
105	0x3c397489	0.011319288
106	0x3d9a1146	0.07522826
107	0xbdc3b4ac	-0.09555945
108	0x3ded884a	0.11598261
109	0x3d8a7bb0	0.06761873
110	0xbd97ce26	-0.074123666
111	0xbe2e312b	-0.17010944
112	0xbcef9e35	-0.029250244
113	0xbe28fc74	-0.16502553
114	0xbc3a4748	-0.011369534
115	0x3de5386f	0.111924045
116	0x3e5ccfe3	0.21563677
117	0xbdbe147b	-0.0928125
118	0x3d7db092	0.06193597
119	0xbbb88428	-0.0056309886
120	0xbcd26bbb	-0.025686136
121	0xbda36fa8	-0.07980281
122	0xbdbb8acb	-0.09157332
123	0x3e9a7b22	0.30172068
124	0xbe0ccdab	-0.13750331
125	0xbca75da1	-0.020430388
126	0x3e7e0952	0.24808243
127	0x3c2d09f2	0.010561453
128	0xbe3edfbd	-0.18640037
129	0xbedaa572	-0.4270435
130	0xbe8fce25	-0.28086963
131	0xbe8c0c40	-0.27353096
132	0xbef65748	-0.48113465
133	0xbee6c137	-0.45069286
134	0x3ef3d01c	0.47619712
135	0x3ea0741f	0.31338593
136	0xbe4afc9d	-0.19822927
137	0xbddd17d9	-0.10795564
138	0xbeca974a	-0.3956855
139	0x3f4bbb5d	0.7958277
140	0x3e258aeb	0.16166274
141	0xbe86cebc	-0.263296
142	0xbd2ea075	-0.042633492
143	0xbe24cee0	-0.16094542
144	0xbe07ddad	-0.13268156
145	0xbdbbd846	-0.0917211
146	0x3ce4ced8	0.027930662
147	0xbe153033	-0.14569168
148	0x3e6caa47	0.2311183
149	0xbca54895	-0.020176211
150	0xbbd5d099	-0.006525111
151	0xbe21dd4c	-0.15807074
152	0x3e4f7820	0.20260668
153	0xbe0e470b	-0.13894288
154	0x3b515e0f	0.0031946932
155	0x3dff0824	0.124527246
156	0xbe87a5b4	-0.2649361
157	0xbe27f174	-0.16400701
158	0x3e3b60b7	0.18298613
159	0x3e7f64c8	0.24940789
160	0xbd08f780	-0.03343916
161	0xbdc44cae	-0.09584938
162	0x3e897d00	0.2685318
163	0x3cb64c48	0.02225317
164	0x3cb49d2d	0.022047604
165	0xbdeeff8f	-0.11669838
166	0x3c7b658d	0.015344036
167	0x3deeba0e	0.11656581
168	0x3dd394fc	0.10331151
169	0x3e3a7df7	0.18212114
170	0x3e71635b	0.23573057
171	0xbd96634d	-0.07343159
172	0xbe2b9c6e	-0.16758892
173	0x3da018e8	0.078172505
174	0x39585f62	0.00020634898
175	0xbdc105ac	-0.0942491
176	0x3cd8c37c	0.026460402
177	0x3db39550	0.087687135
178	0xbd8bbf2e	-0.06823574
179	0xbdf2c5ea	-0.11854155
180	0x3daa9e95	0.08331028
181	0x3d8b01ce	0.067874536
182	0xbdf43bf7	-0.119255
183	0x3e14688c	0.14493006
184	0x3e17d603	0.14827733
185	0x3dae181a	0.08500691
186	0x3bbcd9ce	0.005763269
187	0x3d7079bd	0.05870985
188	0x3e4a685d	0.19766374
189	0xbe0869ca	-0.13321605
190	0x3e9197ed	0.28436223
191	0xbd435c2f	-0.047695335
192	0xbcb2c376	-0.021821719
193	0xbd72deaf	-0.0592944
194	0x3dc5540f	0.096351735
195	0x3dd4de77	0.10393994
196	0x3dc6ffb6	0.09716742
197	0xbe84ec91	-0.25961736
198	0x3e4c2829	0.19937195
199	0xbe82c253	-0.25538883
200	0x3e3b75c4	0.18306643
201	0x3eab180d	0.33416787
202	0xbe5f0ee3	-0.21783023
203	0x3de67522	0.1125281
204	0x3d91454f	0.07093298
205	0x3ecb6145	0.39722648
206	0xbf023cf2	-0.50874245
207	0xbc7d5ae6	-0.015463566
208	0x3e56004f	0.20898555
209	0xbde19e13	-0.110164784
210	0xbda2329c	-0.07919809
211	0x3e40f8ee	0.18844959
212	0xbe714dff	-0.2356491
213	0xbe9585c7	-0.29203627
214	0xbe244cba	-0.16044894
215	0xbe12e96b	-0.14346854
216	0xbe5d655c	-0.21620697
217	0x3ed13c8f	0.40866515
218	0x3edb5aaa	0.4284261
219	0xbe177c50	-0.14793515
220	0xbecdcafe	-0.40193933
221	0xbe61e7d5	-0.22061093
222	0xbd5f4544	-0.054509416
223	0x3ee8ef5b	0.45495114
224	0x3e540bfa	0.20707694
225	0x3e9698d6	0.2941348
226	0xbece6723	-0.40313062
227	0xbeea0431	-0.45706323
228	0xbe9963e1	-0.29959014
229	0xbea81104	-0.32825482
230	0xbf326f36	-0.69700944
231	0x3dbde70f	0.092725866
232	0x3e21ece7	0.15813027
233	0x3e69c00e	0.2282717
234	0xbdc546cf	-0.09632646
235	0xbe9c5d12	-0.30539757
236	0x3d031e9d	0.032011617
237	0xbe91354e	-0.2836098
238	0xbe176089	-0.14782919
239	0x3cb4a34a	0.022050519
240	0x3e132742	0.14370444
241	0x3c6c86f7	0.014436475
242	0xbe4027ff	-0.18765257
243	0xbd8ce092	-0.06878771
244	0x3e802395	0.25027147
245	0x3e15d5c9	0.14632334
246	0x3d504efb	0.05085657
247	0xbe12e5db	-0.14345495
248	0x3d92e7d8	0.07173127
249	0xbdf3be9f	-0.119015925
250	0x3d0b48df	0.034005042
251	0x3dc7b4e1	0.09751297
252	0x3e00d5b4	0.12581521
253	0x3e699af7	0.2281302
254	0x3d8391e3	0.0642431
255	0xbb92d758	-0.0044812374

decoder.weight_hh_l0 f4 [64, 16]
0	0x3ec9ceb2	0.39415509
1	0xba868184	-0.0010261987
2	0xbe0e7946	-0.1391345
3	0xbe9dad31	-0.30796197
4	0xbdb4694e	-0.08809148
5	0x3e03db62	0.12876657
6	0xbe2c3b06	-0.1681939
7	0x3efd34dc	0.4945439
8	0xbcf87345	-0.030328402
9	0x3d01ff3c	0.03173755
10	0xbec3cf0e	-0.38243908
11	0xbe25b449	-0.16182055
12	0x3e04d88b	0.1297323
13	0x3d120b1f	0.035655137
14	0x3f521142	0.82057583
15	0x3d78bde2	0.06072796
16	0xbed1ab65	-0.40951076
17	0x3e9e776e	0.30950493
18	0xbedda93b	-0.43293175
19	0xbe08f615	-0.13375123
20	0x3e35ef04	0.17766958
21	0xbe858be6	-0.26083297
22	0x3ee80357	0.45315048
23	0x3ef971f7	0.4871976
24	0xbe0e047c	-0.13868898
25	0x3e29b983	0.16574673
26	0x3e390dc4	0.18071657
27	0x3d447a5f	0.047968265
28	0x3eab1cda	0.3342045
29	0x3e216687	0.15761767
30	0x3e3691ec	0.17829102
31	0x3e8204a1	0.25394157
32	0x3ea69ca9	0.32541397
33	0x3d780f76	0.06056162
34	0x3e644e25	0.22295435
35	0xbe9ff9a3	-0.31245145
36	0xbe304c74	-0.17216665
37	0xbd0d9e1f	-0.034574624
38	0xbe2964c9	-0.16542353
39	0x3ee971da	0.45594674
40	0x3df5b44e	0.11997281
41	0xbd2647a4	-0.040595666
42	0xbebcf1c3	-0.369032
43	0xbdf6e969	-0.12056238
44	0x3e2ac94f	0.16678356
45	0x3e99844c	0.29983747
46	0x3eaa2b91	0.33236364
47	0x3e2de5ab	0.16982143
48	0x3e0952f4	0.1341055
49	0x3eaccc05	0.33749405
50	0x3b69ec83	0.003569395
51	0xbe8f9e57	-0.2805049
52	0x3e96fa04	0.29487622
53	0xbec03248	-0.37538362
54	0x3e62c212	0.22144344
55	0xbd34ae2e	-0.044111423
56	0x3dac6700	0.08418083
57	0x3e1a2087	0.1505147
58	0x3e26da6e	0.16294262
59	0xbe900c64	-0.28134453
60	0x3eb17dba	0.34666234
61	0x3e6204cf	0.22072147
62	0x3e3a206f	0.18176435
63	0xbca0cab2	-0.019627903
64	0xbf12a661	-0.57285124
65	0xbc6e6f33	-0.014552879
66	0xbee88c00	-0.45419312
67	0xbe6b318c	-0.2296812
68	0x3e7fb757	0.24972282
69	0x3e9f4958	0.31110644
70	0x3f0c6228	0.54837275
71	0x3e1ac46f	0.15113996
72	0xbf0a25ae	-0.53963745
73	0x3c641e2a	0.013923207
74	0xbd1c92ab	-0.03822581
75	0x3eea26b9	0.45732668
76	0xbd1788fe	-0.03699588
77	0x3f19ff65	0.60155326
78	0xbf05aabd	-0.5221365
79	0x37e29b90	2.7013739e-05
80	0x3de1e701	0.110303886
81	0xbe0f9b8c	-0.1402418
82	0x3bacef29	0.0052775335
83	0x3db0833b	0.0861878
84	0x3dd73310	0.10507786
85	0xbf153c5b	-0.5829522
86	0xbd0029b3	-0.031289767
87	0xbe369182	-0.17828944
88	0xbe816076	-0.25268906
89	0xbe149f87	-0.1451398
90	0xbdcd10fb	-0.100130044
91	0xbe7a6923	-0.24454169
92	0xbbd0ebae	-0.0063757515
93	0x3dfe0739	0.12403721
94	0x3e07b11c	0.13251156
95	0x3e32def4	0.17467862
96	0xbe34ac93	-0.17643957
97	0x3d707bfa	0.058711983
98	0x3df91b7d	0.12163446
99	0xbdc20dde	-0.09475301
100	0xbd803184	-0.06259444
101	0xbe19d755	-0.15023549
102	0xbe714ed3	-0.23565225
103	0xbc71fa5a	-0.014769161
104	0x3f09a4ef	0.53767294
105	0xbf14a2c5	-0.58060867
106	0xbdafeb45	-0.08589796
107	0x3e02352b	0.12715594
108	0x3d8cce98	0.06875342
109	0x3cdc6e5b	0.02690809
110	0x3e9cfabc	0.30660045
111	0x3db019b6	0.08598654
112	0x3ea413ea	0.32046443
113	0x3deb9a67	0.11504059
114	0xbbbcf8e3	-0.0057669743
115	0x3e3ce1b7	0.18445478
116	0xbe021d6c	-0.12706536
117	0xbcc0a9c4	-0.02351845
118	0xbf3c80a6	-0.736338
119	0x3c91897c	0.017765753
120	0xbe3d0da7	-0.18462239
121	0xbe2cc681	-0.16872598
122	0xbe8e96ee	-0.27849525
123	0xbebcbb9b	-0.36861882
124	0xbe983ae4	-0.2973243
125	0xbdbeff50	-0.09326041
126	0x3d8fd245	0.070225276
127	0x3baa7eeb	0.005203118
128	0xbe1db805	-0.15402229
129	0x3e6797a2	0.22616437
130	0xbe854716	-0.26030797
131	0xbe28fe20	-0.16503191
132	0x3ac9ba06	0.0015390522
133	0x3c73e627	0.014886416
134	0xbebd13b4	-0.36929095
135	0x3e89307d	0.26794806
136	0x3d9f1a33	0.07768669
137	0xbe337db3	-0.17528419
138	0x3eb5c31d	0.35500422
139	0x3da813d8	0.0820691
140	0x3d51b11a	0.051194288
141	0x3d52bbcd	0.051448632
142	0x3e841e5c	0.25804412
143	0x3e4767f8	0.19473255
144	0xbb9ae3cb	-0.004726862
145	0x3e9ac0ae	0.30225128
146	0x3d3561e2	0.0442828
147	0xbebe3b75	-0.37154737
148	0x3ec8359c	0.391034
149	0x3e0434ba	0.12910739
150	0x3e32107c	0.17389101
151	0x3e8b82f7	0.27248356
152	0x3e058e59	0.13042583
153	0xbd9865d7	-0.074412994
154	0xbe65f9f8	-0.22458637
155	0x3d43fb89	0.047847304
156	0x3e1f0248	0.15528214
157	0x3ebe5604	0.37175
158	0x3ef2b985	0.47407165
159	0x3e3bdf45	0.1834689
160	0x3f0e5d81	0.55611426
161	0xbc447d1b	-0.011992718
162	0x3e2115ec	0.15731019
163	0xbe3a7ecc	-0.18212432
164	0x3ee11795	0.43963304
165	0xbe1f3a04	-0.15549475
166	0x3eac7cb5	0.33688894
167	0x3d3e155e	0.046407096
168	0x3ebabb1f	0.36470887
169	0x3df027ec	0.117263645
170	0xbde05a3a	-0.10954709
171	0x3d80dc10	0.062919736
172	0x3e37fcca	0.17967525
173	0x3eb64b40	0.35604286
174	0x3ed18849	0.4092429
175	0x3e2f8299	0.17139663
176	0xbdadc9fb	-0.0848579
177	0xbe028f7a	-0.12750044
178	0x3d5c5cc0	0.05379939
179	0x3e37e8aa	0.17959848
180	0xbe671689	-0.2256719
181	0xbdb66fae	-0.0890802
182	0xbf0644ae	-0.52448547
183	0x3c74758d	0.014920604
184	0x3dad8f46	0.08474593
185	0xbee8fe0a	-0.45506316
186	0x3e34b58a	0.17647377
187	0xbf14a06f	-0.580573
188	0xbdf2f3dc	-0.11862919
189	0x3d0a973a	0.033835627
190	0x3e7f36a3	0.24923186
191	0x3e080fd7	0.13287292
192	0xbeaffe64	-0.34373772
193	0x3ee03b95	0.43795457
194	0xbda849b3	-0.08217182
195	0xbe6cf3e7	-0.23139916
196	0xbe14b8d8	-0.14523637
197	0xbed9344c	-0.42422712
198	0x3e9292fe	0.2862777
199	0x3e9cac21	0.30600074
200	0xbe2f0099	-0.17090072
201	0xbd0308a0	-0.031990647
202	0x3f0fb5b6	0.56136644
203	0x3d48a8b4	0.048989013
204	0x3deae4c6	0.11469416
205	0xbc90f9ce	-0.017697241
206	0x3e0c1e9a	0.13683549
207	0x3e8b566c	0.27214372
208	0x3ac19642	0.0014769512
209	0x3d82e709	0.06391723
210	0xbe336ff3	-0.17523174
211	0xbcf4098e	-0.029789712
212	0x3e8e63fe	0.27810663
213	0xbe2d33e9	-0.16914333
214	0x3e265bb1	0.16245915
215	0x3e2fa726	0.17153606
216	0xbd86c91f	-0.065813296
217	0xbeb22b56	-0.34798688
218	0x3e391941	0.1807604
219	0xbde8dcd1	-0.113702424
220	0x3e23ca04	0.15995032
221	0xbcc5481e	-0.02408224
222	0xbeb42ef1	-0.35192063
223	0xbdbabf08	-0.091184676
224	0x3ddd5f66	0.108092114
225	0xbe3039dd	-0.17209573
226	0x3db4b576	0.088236734
227	0xbed7285b	-0.42022976
228	0x3dfbeb35	0.123007216
229	0x3e2d2adb	0.1691088
230	0x3c996877	0.01872657
231	0x3e31d4c0	0.17366314
232	0x3d8178eb	0.063218914
233	0x3e450238	0.19239128
234	0x3d627a43	0.05529238
235	0xbe62b7b4	-0.2214039
236	0x3e37a42c	0.1793372
237	0x3e46d0c7	0.1941558
238	0x3dfd859d	0.12379
239	0xbd6114cd	-0.054951478
240	0x3e912910	0.2835164
241	0x3e757035	0.23968585
242	0xbe8808b0	-0.26569128
243	0xbe85f369	-0.2616227
244	0x3e6a6dbf	0.22893427
245	0x3ea2d92b	0.3180631
246	0xbd2320c8	-0.039826185
247	0x3e45a718	0.19302022
248	0xbda5b8fd	-0.08091924
249	0x3e3b169d	0.18270345
250	0x3d8ecd29	0.06972725
251	0xbe1ff3f5	-0.15620406
252	0xbe067c1e	-0.13133284
253	0xbe242a29	-0.16031708
254	0xbdbaffbd	-0.091308095
255	0xbdb72e40	-0.08944368

decoder.bias_ih_l0 f4 [64]
0	0x3e899ad9	0.26875952
1	0x3e6c57ff	0.23080443
2	0x3e3e9baa	0.18614069
3	0x3e92eabb	0.2869471
4	0x3eab7014	0.33483946
5	0x3dede1ed	0.116153575
6	0x3921206d	0.00015366236
7	0xbe870bb2	-0.2637611
8	0xbcad0983	-0.0211227
9	0x3d8f61f9	0.07001109
10	0xbd99e8cd	-0.07515106
11	0xbce93527	-0.028467728
12	0x3ee33b32	0.443811
13	0x3ddf5e7d	0.10906694
14	0x3ecad780	0.39617538
15	0x3e7e51f1	0.24835946
16	0xbddd0907	-0.107927375
17	0xbe67675c	-0.22598022
18	0x3da18a5a	0.078877166
19	0x3e522c90	0.20524812
20	0xbe47704e	-0.19476435
21	0xbe92fe5d	-0.2870969
22	0xbda9ad1a	-0.0828497
23	0xbe8e32c3	-0.27773103
24	0x3e169b3a	0.14707652
25	0xbcadf616	-0.021235507
26	0xbde1e4f4	-0.110299975
27	0xbd5a03cb	-0.053226274
28	0xbd48471b	-0.048895936
29	0xbd62627f	-0.055269714
30	0x3e100ebe	0.14068124
31	0x3e902b3f	0.28157994
32	0xbe25c2f6	-0.16187653
33	0xbe111177	-0.14166819
34	0x3e192a18	0.14957464
35	0xbe8c9351	-0.27456143
36	0x3e949faa	0.29028064
37	0xbe9ff8c3	-0.31244478
38	0xbdb13b62	-0.086539045
39	0xbe8845b5	-0.26615682
40	0xbdfc0d80	-0.123072624
41	0xbe70802c	-0.23486394
42	0xbdcfd56e	-0.1014813
43	0x3d506be7	0.050884154
44	0x3d0f6146	0.035004877
45	0xbc28132c	-0.010258477
46	0xbed83f07	-0.42235586
47	0x3ddc2e6f	0.10751044
48	0x3e0d6b4f	0.13810466
49	0x3e8ee527	0.27909204
50	0x3efbfcf8	0.49216437
51	0x3e80ba71	0.25142244
52	0x3ef22fc3	0.47302064
53	0x3e22bb4a	0.15891758
54	0x3e1823e9	0.14857449
55	0xbcaa8892	-0.020817075
56	0x3e69191f	0.22763489
57	0xbdbf4941	-0.09340144
58	0x3dafef98	0.08590621
59	0xbe340519	-0.1758007
60	0x3e89a21b	0.2688149
61	0x3e8f7d93	0.28025493
62	0x3ec41a77	0.3830144
63	0x3e846455	0.25857797

decoder.bias_hh_l0 f4 [64]
0	0x3e83935c	0.25698364
1	0x3e8cebe5	0.27523723
2	0x3dec34e6	0.11533527
3	0x3e841861	0.2579985
4	0x3ed47aaa	0.41499835
5	0x3dadecf5	0.084924616
6	0xbdadfe68	-0.0849579
7	0xbd6ff7dc	-0.058585986
8	0xbd810124	-0.06299046
9	0x3e6b0abf	0.22953318
10	0x3ecf4da5	0.40488926
11	0xbe425ac8	-0.18979943
12	0x3d649f50	0.055815995
13	0x3db7e5bc	0.08979365
14	0x3f0aecb2	0.5426742
15	0x3e906ce7	0.28208086
16	0xbe36b2aa	-0.17841592
17	0xbd530750	-0.051520646
18	0xbc88432b	-0.01663359
19	0xbd5aabf5	-0.053386647
20	0xbd5e4c48	-0.054271966
21	0x3d977980	0.07396221
22	0xbd9ad7c4	-0.07560685
23	0xbdfc645f	-0.12323832
24	0xbe040798	-0.12893522
25	0xbd9ba197	-0.0759918
26	0x3db22e38	0.08700222
27	0x3e1b8c28	0.15190184
28	0xbd889084	-0.06668189
29	0xbde60631	-0.1123165
30	0xbe82dd9f	-0.25559708
31	0xbe140483	-0.14454846
32	0x3e4da8cc	0.20083922
33	0x3e4f777d	0.20260425
34	0xbe78a15c	-0.24280304
35	0xbdb6a699	-0.08918495
36	0x3eec1acd	0.46114197
37	0xbea0d267	-0.31410524
38	0xbde58a44	-0.11208013
39	0x3e4b317b	0.19843094
40	0x3e5f5218	0.2180866
41	0x3d3b86b4	0.04578276
42	0x3da74ae8	0.08168584
43	0x3e585634	0.21126634
44	0x3e9c96d8	0.30583835
45	0x3d35deb9	0.044401858
46	0xbd01a116	-0.031647764
47	0x3cd985f6	0.026553135
48	0x3d40ebaf	0.047099765
49	0x3e020b09	0.12699522
50	0x3f117e83	0.56833667
51	0x3e235de2	0.15953782
52	0x3e916347	0.28396055
53	0x3e4d354a	0.2003986
54	0x3e7fd5d3	0.24983911
55	0xbdd47b9a	-0.103751376
56	0x3e984d0b	0.2974628
57	0x3cf1af15	0.02950243
58	0x3ea509d8	0.32234073
59	0xbca31a7b	-0.019910088
60	0xbe17394d	-0.14767952
61	0x3e8433cc	0.25820768
62	0x3e907dd1	0.2822099
63	0x3e79d75e	0.24398562

attention.v f4 [16]
0	0x3fc84e63	1.5648922
1	0x3f86fdf7	1.0546254
2	0x3fb0d46c	1.3814826
3	0x3f949c2e	1.1610162
4	0x3faca50d	1.348787
5	0x3fcaa3fd	1.5831295
6	0x3e77ed23	0.24211554
7	0x3f73360c	0.95004344
8	0x3f769e69	0.96335465
9	0x3fafd6e4	1.3737454
10	0x3f587cc1	0.8456536
11	0x3fa3d755	1.2800089
12	0x3f3644f7	0.7119898
13	0x3f905203	1.1275028
14	0x3fc812aa	1.5630696
15	0x3fa683b5	1.3008944
