best_model.pth (torch, 409974 bytes, 15 tensors)

encoder_embedding.weight f4 [67, 64]
000000 c9 ff c0 bf a7 3c 91 be eb b7 1b bf c6 fa 0a c0
       -1.507806 -0.28366587 -0.6082751 -2.171556
000010 cf a9 d1 3f 2f b2 ac be b3 71 0d bf 7b b8 1d bf
       1.6379946 -0.33729693 -0.55251616 -0.6160962
000020 f2 5c bc be 5e 8f 76 bf d8 62 92 bf ad b6 84 3f
       -0.36789662 -0.9631251 -1.1436415 1.0368248
000030 bd 6e 7a be e1 dd 27 3f 68 69 26 3f 10 0c 4c bf
       -0.24456306 0.65572935 0.6500459 -0.79705906
000040 49 05 a1 3f f0 ab 23 3f 75 23 77 3f 8b 49 b4 be
       1.2579738 0.6393423 0.9653848 -0.3521236
000050 94 f3 52 3f 11 1c a9 3f 12 4e 1a bf 16 4e 83 3f
       0.8240292 1.321169 -0.60275376 1.0258205
000060 72 32 87 bf 28 a1 b4 3e 96 20 04 bf 82 79 bf bf
       -1.056227 0.35279202 -0.5161222 -1.4958956
000070 8f 0d 5f bd 57 ef 74 bf d3 68 df bd b0 ae 84 3f
       -0.05445629 -0.95677704 -0.109086655 1.036581
000080 c9 44 7a bf 2f f5 9e 3f 7e 6c 28 bf 29 0f 2d 3d
       -0.9776121 1.2418574 -0.65790546 0.042250786
000090 59 1a a6 3f df 1d 2c 3f 2c 33 fc 3f f0 54 18 3f
       1.2976791 0.6723308 1.9703116 0.59504604
0000a0 2d b0 05 c0 f7 4a 88 be a0 5e 85 3e 09 c7 90 3f
       -2.088878 -0.26619694 0.26048756 1.1310741
0000b0 c5 e4 9e 3f 56 6f a8 bf 2c 06 8b bc 07 52 c2 3d
       1.2413565 -1.3158977 -0.016970716 0.09488302
0000c0 2f 20 b4 3e 1c be 26 be a4 19 b5 3f 32 ce 27 bb
       0.35180804 -0.16283458 1.414845 -0.002560508
0000d0 bb c5 21 bf 4c 71 e5 bf 1d 4d 11 3e 20 96 5f be
       -0.6319234 -1.79252 0.14189573 -0.21834612
0000e0 84 94 c5 be b3 e1 91 3e 02 6f 9e 3f 6b 6c 50 bf
       -0.3858987 0.28492507 1.2377627 -0.8141543
0000f0 b9 ce c8 be 5b 87 99 bf d5 ed 5e 3f 94 48 88 3d
       -0.39220217 -1.1994432 0.8708165 0.06654468
000100 21 7e 9f bf 01 1b 01 c0 6b a3 a2 bf 31 cf 58 3f
       -1.2460366 -2.0172732 -1.2706121 0.8469115
000110 4b 6c 20 bf e9 da 55 bf c2 9c 5f 3f e8 3c 49 c0
       -0.6266524 -0.83537155 0.8734857 -3.1443424
000120 7b a2 dc bf 1e ab 21 be 48 23 88 3e df 70 92 bf
       -1.7237085 -0.15787932 0.26589417 -1.1440696
000130 b5 d5 ec 3d 0c 61 6e 3f 49 89 b5 3f 64 d1 95 3e
       0.11564199 0.9311683 1.4182521 0.29261315
000140 f0 3a 5d 3f d2 7e e8 3f 18 22 2b be 98 d1 26 bf
       0.86418056 1.8163702 -0.16712224 -0.65163565
000150 a8 29 2b bf 6c 51 30 be ec c5 98 3f 73 f1 77 be
       -0.6686044 -0.1721856 1.1935401 -0.242132
000160 a9 9a 9f 3f 3d 3b 93 3d 75 e5 87 3e b8 39 b0 bf
       1.2469074 0.07189033 0.2654225 -1.3767614
000170 27 c8 4f 3f 9c 2e b5 3f a6 22 e7 bf df 63 ab bf
       0.81164783 1.4154849 -1.8057449 -1.3389853
000180 f5 e5 03 c0 c7 a8 ee 3e 25 2d 85 3f e2 0c 4f 3f
       -2.0609105 0.46613142 1.0404402 0.8087903
000190 6e 19 ff 3f b2 a6 27 40 6f bd 15 bf 19 ce 66 3f
       1.9929636 2.6195493 -0.5849218 0.9015823
0001a0 93 4d 1c 3f f9 ba 19 bf 0c 79 95 3f e7 dd d0 bf
       0.6105587 -0.6005092 1.1677566 -1.6317719
0001b0 ec bd 40 bf 37 c3 03 c0 1d 7a 1a 40 00 43 be bf
       -0.752898 -2.05879 2.4137032 -1.4864197
0001c0 f5 62 f9 bf e4 e5 f5 bf 87 f2 3c be 49 3f b4 3f
       -1.9483324 -1.9210782 -0.18451892 1.4081813
0001d0 d1 08 ab 3f 7e 01 88 3f fb 95 31 3c 36 5b 2d bf
       1.3362066 1.0625455 0.010838981 -0.677173
0001e0 4e ea 69 3f 7c 26 7c bf 45 77 c4 be 32 c7 f4 3f
       0.91373146 -0.9849622 -0.38372245 1.912329
0001f0 b2 cc 2c c0 90 f3 3a c0 01 76 d0 be 45 d7 98 3f
       -2.6999936 -2.9211159 -0.4071503 1.1940695
000200 7d df 28 c0 d4 69 88 3d fe 3b 2b 3d d4 e2 f5 bf
       -2.6386406 0.0666081 0.04180526 -1.9209847
000210 63 ed 0a 40 43 1b 3a be b6 20 27 3f 73 0e da bd
       2.170739 -0.18174462 0.6528429 -0.10647287
000220 6a 67 1b 3e 65 bf 3a bf f0 ff a2 bf df a0 ae bf
       0.15176168 -0.72948295 -1.2734356 -1.3642844
000230 8f c6 50 3f 24 2f b6 3f c2 19 12 3f 65 66 e7 be
       0.81552976 1.4233136 0.57070553 -0.45195308
000240 f0 4f b9 3f b0 2c c2 3f 94 75 69 3f 76 4a ab 3e
       1.447752 1.5169888 0.91195035 0.33455247
000250 11 eb 10 be d9 bd 28 bf 14 c5 b1 bf 99 ce 26 3f
       -0.1415217 -0.65914685 -1.3888268 0.65158993
000260 2d 23 e0 bb 59 ee 90 3f 69 7e 49 40 77 a8 03 bf
       -0.006840131 1.1322738 3.1483405 -0.5142893
000270 72 d1 07 bf f4 00 8c bf 03 8b 2a bf 19 4a fa 3f
       -0.53053963 -1.0937791 -0.66618365 1.9553863
000280 0c 29 cf 3e 37 29 03 bf 8d c1 ad bf 21 c1 0e 40
       0.40461004 -0.51234764 -1.3574692 2.2305377
000290 58 8b 24 3f cd e5 b7 3e a0 86 f7 3e c2 c4 0e 40
       0.6427512 0.35917512 0.48344898 2.2307591
0002a0 07 4e ba bd de f1 e3 bf 85 33 ea bf c4 9c b0 3f
       -0.09096914 -1.7808187 -1.8296973 1.3797841
0002b0 7f 67 89 bf 20 40 11 c0 d8 5c 07 3f 8c 0b 21 be
       -1.073471 -2.2695389 0.52876043 -0.15727061
0002c0 0f 76 88 3f b2 c9 6f 3f 25 ed 89 3f 26 b2 31 bf
       1.0661029 0.9366714 1.0775496 -0.6941246
0002d0 43 1d 14 40 e4 73 d6 bf 32 f0 1f 3f 54 f3 a4 bf
       2.314286 -1.6754117 0.62475884 -1.2886758
0002e0 4d 9d 6b 3f 1a 10 1f bf e9 8f f8 3c 79 06 f4 be
       0.92036897 -0.62133944 0.03034206 -0.47661188
0002f0 09 ba 86 3e ce 73 b4 bf 1f 72 6c 3e c7 56 a3 3f
       0.2631381 -1.4097841 0.23090409 1.2760857
000300 d6 a8 a7 bf 4a e3 07 bf 2d 48 d7 3f f5 aa 53 3e
       -1.30984 -0.5308119 1.6818901 0.20670684
000310 ac 16 9a be bd 42 54 3f 64 84 bf bf 64 a1 a8 bc
       -0.30095422 0.82914335 -1.4962277 -0.02058477
000320 bb 95 9c bf d1 6b 25 bf 22 bb 15 3e d4 d2 09 c0
       -1.2233194 -0.6461764 0.14622167 -2.153493
000330 07 53 02 bf d2 bf 47 be e0 b7 fd be eb 0f 8b 3d
       -0.5090794 -0.19506767 -0.49554348 0.067901455
000340 8f 6a 14 bf 96 b1 a8 3f bd f1 6e 3d 0a ee b1 3f
       -0.57975096 1.3179195 0.05833601 1.3900769
000350 ba 28 5d 3f 05 31 9c 3e cf 9e 91 3e 74 d6 b2 bd
       0.8639027 0.3050615 0.28441474 -0.0873231
000360 c1 6f 86 ba b7 5e be 3e c3 bc fa 3f 65 3e 6a bf
       -0.0010256694 0.37181637 1.9588856 -0.91501456
000370 9f 81 85 be 26 08 9d be 53 ef 90 3f 70 03 c2 bd
       -0.26075456 -0.3067028 1.1323036 -0.09473312
000380 ae 73 ed 3f bb 4e 3a 3e a1 f0 84 be 70 bf d0 3f
       1.8550928 0.18194096 -0.25964835 1.6308422
000390 15 e1 ad 3e 76 43 af be d1 13 9a 3d 92 c4 b7 bf
       0.33960786 -0.34231156 0.07523311 -1.4356863
0003a0 13 f4 a1 3f 75 98 40 3f ea 2a 86 be 21 41 30 be
       1.265261 0.7523263 -0.26204616 -0.17212345
0003b0 71 b2 aa 3f 26 6d 52 3f dd aa 3e 3f 61 d5 f9 bd
       1.3335706 0.821978 0.74479467 -0.12198902
0003c0 99 91 21 be 5f 9b 21 bf 28 34 58 3f 15 86 96 3f
       -0.15778197 -0.631277 0.84454584 1.1759669
0003d0 cc 5e ba bf c7 b7 bf bd ea 28 a7 3d e0 2a 30 3f
       -1.456018 -0.093612246 0.081621006 0.6881542
0003e0 8c 6a fe bf 26 c5 76 be df 37 28 3c 36 b0 15 be
       -1.9876266 -0.24098644 0.010267227 -0.14618
0003f0 0a b7 9a bf f1 3a 37 bf 7b 25 ad 3f c2 b2 dc 3f
       -1.2087109 -0.7157431 1.3527063 1.7242053

decoder_embedding.weight f4 [30, 64]
000000 a8 64 76 3e 96 77 08 3f 76 3a 57 40 b8 64 10 bf
       0.24061835 0.53307474 3.3629432 -0.56403685
000010 28 30 98 3e 1b 77 49 3f f0 4a c5 3f b7 32 7c bf
       0.2972424 0.78697366 1.5413494 -0.98514885
000020 88 9c e2 be a4 a9 bd 3f 68 39 18 c0 1f 3c 21 bf
       -0.4426005 1.4817395 -2.3785038 -0.6298236
000030 cf 66 d3 3e a0 f1 a6 bf dc e6 b4 3e 7c 06 29 3f
       0.41289374 -1.3042488 0.35332382 0.6602552
000040 4d 42 83 be b3 ee a6 3e fd dd a2 be 28 f9 30 bf
       -0.2563652 0.32603988 -0.3180999 -0.6913018
000050 ae 71 5e 3f ab fd b1 bf 75 76 74 3f 74 43 af be
       0.8689221 -1.3905538 0.9549325 -0.3423115
000060 71 8c 85 3f e8 26 ae bf 94 f7 92 3f 36 0a 0d 3f
       1.0433484 -1.3605623 1.1481805 0.55093706
000070 bc 83 a9 be e3 02 2f 3f de 95 78 bf f0 6e 64 3e
       -0.33108318 0.6836378 -0.9710368 0.22307944
000080 50 7d 58 be 50 62 b8 3f 9d 25 78 bd 72 58 6e 3f
       -0.21141553 1.4405003 -0.060582746 0.93103707
000090 6c a1 02 3f 7d 1e d4 3f 8d 32 7e 3f 08 18 1d bf
       0.5102756 1.6571804 0.99295884 -0.61364794
0000a0 31 67 f3 3f 2c 12 89 3e 8c e6 20 3d 09 00 75 bd
       1.9015867 0.26771677 0.039282367 -0.059814487
0000b0 2a 2a f1 3e 3e 37 83 3f c5 2f 57 be 7c b9 6e bf
       0.4710248 1.0251234 -0.21014316 -0.93251777
0000c0 43 8c a9 3f ac 69 c1 be 17 14 a4 bf ae ee d5 be
       1.324593 -0.37775934 -1.2818631 -0.4178366
0000d0 83 e1 66 bf a1 97 fc bf cf 96 db 3f 7d 4b 79 bf
       -0.90187854 -1.9733773 1.7155398 -0.9738081
0000e0 ba aa 61 bd 0c 10 1c bf 2e d2 16 3e b8 9f f8 3d
       -0.05509446 -0.60961986 0.14728615 0.12139839
0000f0 15 27 af 3d fa 21 90 be d3 d3 33 be 8c c2 a0 bf
       0.08552376 -0.28150922 -0.17561273 -1.2559371
000100 92 35 e1 bf c6 37 96 3e 74 cf d5 bf 11 9e 61 bf
       -1.7594473 0.29339427 -1.6703935 -0.88131815
000110 93 b8 fb 3f 7e 58 cd bf 88 3c 9d be fa 3e 38 bd
       1.9665703 -1.6042631 -0.30710244 -0.044981934
000120 b3 1b 16 3f 25 9e d1 3e 5c 3c 90 3e 70 62 25 3f
       0.58636016 0.40940967 0.2817105 0.6460333
000130 4e 51 01 3f 20 b6 ac 3f 10 80 ea bd 33 8a 41 bf
       0.50514686 1.349308 -0.11450207 -0.756015
000140 10 05 4c 3f e9 9a 85 3d 5e 8a 0a bf 67 3e 04 bf
       0.79695225 0.065236874 -0.5411738 -0.5165772
000150 7f 0a b9 3e 0d 5e 01 c0 a2 a8 fb 3f 79 87 fe be
       0.3614082 -2.0213654 1.9660838 -0.49712732
000160 f5 58 a5 3e e3 85 60 3f 84 dd 70 3e 25 2c 89 3e
       0.3229443 0.87704295 0.23522002 0.26791492
000170 f4 ee ea be d2 1a 47 3f 09 d4 1d be 9a 96 df bc
       -0.45885432 0.777753 -0.15412916 -0.027293492
000180 33 23 9e 3d ed 36 83 3f d8 d6 52 bf 64 87 60 bf
       0.077215575 1.0251137 -0.82359076 -0.8770659
000190 65 2e 4d be ee 49 85 3f ea ac ca 3d 1d cb 2b bf
       -0.2003723 1.0413187 0.09896262 -0.671068
0001a0 d9 0f bc 3e 8f f0 dd 3f ea cf 1f 3f 7b 79 97 3f
       0.3673084 1.7339038 0.62426627 1.1833948
0001b0 a6 86 20 3f 45 cf 61 be 47 19 15 3f 24 c1 8d 3f
       0.6270546 -0.22051723 0.58241695 1.1074567
0001c0 dc 8f 25 bf 22 2f c1 3f 15 7c 71 3e 73 7b 33 3f
       -0.64672637 1.5092509 0.2358249 0.70110244
0001d0 4f c4 55 bd a7 a4 35 3f e8 53 83 be 5b d0 b9 3d
       -0.052189168 0.70954365 -0.25649953 0.09072944
0001e0 b3 6a bd 3e d4 ce a8 3e b9 8e e1 3e 7f 07 3c be
       0.36995468 0.32970297 0.440542 -0.18362235
0001f0 55 62 22 3f fa a3 a5 bf 07 9c aa 3f d2 f4 ee be
       0.6343129 -1.2940667 1.3328866 -0.46671158
000200 c7 34 75 3f bf 75 1a bf dd 06 a1 3f f7 b1 5d 3e
       0.95783657 -0.60335916 1.258022 0.2164992
000210 75 5b d9 be 94 d4 28 3e d8 b4 7e 3f 5d 04 07 3f
       -0.4245259 0.16487342 0.99494696 0.5274103
000220 a6 ac 5f 3e 20 9d f8 3e b3 dd ee 3e a3 7a 9f be
       0.21843204 0.48557377 0.46653518 -0.31148252
000230 c3 c4 dd 3e af 64 8c bd 7e 27 0a bd b4 98 ff 3e
       0.4331418 -0.06855141 -0.03372907 0.4992119
000240 48 07 03 40 6f 3f 16 3f b6 d3 0a 40 b4 73 46 3f
       2.0473194 0.5869054 2.1691718 0.775203
000250 08 ee d4 3e 9d 5a 14 3d c7 27 14 be e1 ff d3 3f
       0.41587853 0.036219228 -0.14468299 1.6562463
000260 15 bf 68 3e c6 fa cd 3e fe e6 a7 bf 8d 80 40 bf
       0.22729142 0.40230387 -1.3117368 -0.7519615
000270 1e ff 53 bf 19 8f 32 3f 75 eb 0f be c8 1f 02 be
       -0.8281115 0.697496 -0.14054663 -0.12707436
000280 b2 a1 30 3f 1e a2 39 bc ab 74 6f 3f 66 b7 18 3f
       0.6899673 -0.011330156 0.93537396 0.59654844
000290 b6 c7 97 3f c1 cd 8a 3f 15 fb ac bf ba 37 a8 bf
       1.1857822 1.0844041 -1.3514124 -1.3142006
0002a0 65 bf 90 bf 9c f6 6e 3f 7e 3e aa bf 24 31 c8 be
       -1.1308409 0.93345046 -1.3300321 -0.3909999
0002b0 44 d5 89 bf e0 1a a4 3f c6 16 27 3d 70 50 a8 3e
       -1.0768209 1.2820702 0.040793203 0.3287387
0002c0 88 6d 48 3f c1 5f dd bd f5 92 b3 bf bb 25 77 3f
       0.7829213 -0.10809279 -1.4029223 0.9654195
0002d0 e2 eb 9e 3f 99 80 55 bf 4c e7 de 3c 84 de fd bf
       1.2415736 -0.8339935 0.0272099 -1.9833531
0002e0 63 f7 b6 3e 89 6c 37 bf bb 53 f2 3f 50 ca 88 bf
       0.35735616 -0.71649987 1.8931803 -1.0686741
0002f0 a4 8f e5 be 62 02 7a 3f 35 ed 8e bf 9a 77 9d be
       -0.44836152 0.97659886 -1.116614 -0.3075531
000300 f0 30 c2 bd 6f 8a 18 bf 10 0e 38 3e d6 46 6a be
       -0.0948199 -0.5958623 0.17974114 -0.22878584
000310 7b 3f d2 bd 35 00 89 bf c5 37 39 3f 47 39 58 3f
       -0.10266014 -1.0703188 0.7235072 0.844624
000320 34 da 74 bf 76 46 69 3e e4 9a 83 3f 51 d4 cc bf
       -0.9564545 0.22780785 1.0281644 -1.6002294
000330 c5 e9 ff be 2f 7c 0f 40 6d e2 9b bf b0 8c a7 bf
       -0.4998304 2.2419546 -1.2178475 -1.308981
000340 90 43 19 3f 3c 6b ef 3d 62 e8 79 bf be d9 d2 bf
       0.5986872 0.11690375 -0.97620213 -1.64727
000350 fc 05 01 3f 08 6b 60 bf 53 1d 60 bf e6 1a 1e 3f
       0.50399756 -0.87663317 -0.87544745 0.61759794
000360 7f 3f 0e be aa 25 5e 3f 5c 96 3e 3f 03 b4 b1 bf
       -0.1389141 0.8677622 0.7444818 -1.388306
000370 a5 26 2e bf 10 43 68 bf 4b 5a 44 bf 0c 3c cf bc
       -0.68027717 -0.9072733 -0.76700276 -0.025297187
000380 29 e5 2a 3f 42 31 e3 3d 18 40 ad bf 47 bf 81 3f
       0.6675592 0.110933796 -1.3535185 1.0136498
000390 39 5b 06 bf c0 c2 bb 3f 6f 9c 46 3f b5 b6 82 3f
       -0.52482945 1.4668808 0.7758245 1.0212008
0003a0 16 ee d6 bd 8a 88 d6 be d9 34 37 be db 02 a8 bf
       -0.1049463 -0.41901046 -0.17891254 -1.3125871
0003b0 fe cc a5 bd 92 28 55 bd 70 9d 2a 3f 8b 42 54 be
       -0.0809574 -0.052040644 0.6664648 -0.20728509
0003c0 73 0f 14 3e f1 20 12 3f bb 5d aa bf 6d bb 16 bf
       0.14459018 0.57081515 -1.3309854 -0.5887974
0003d0 ad f1 33 bf 64 12 16 3f 94 a7 8b bf 39 12 7b bf
       -0.7029064 0.5862181 -1.0910516 -0.9807468
0003e0 4e 68 9b bf 50 5f 71 bf 4e 1b cc 3f 3f 62 4d be
       -1.2141206 -0.9428606 1.5945833 -0.20057009
0003f0 ab ba c1 bf e4 40 33 bf 92 64 29 3f 1e fa 81 3f
       -1.5135092 -0.7002089 0.66169083 1.0154455

encoder.weight_ih_l0 f4 [256, 64]
000000 66 ee 90 3d dc dd 3d bd 87 e0 fb 3b 3e d0 50 be
       0.07076721 -0.04635416 0.007686678 -0.20391938
000010 f8 d1 5f 3d 24 9b 91 be 2e 0e fc bc b1 7b 46 bd
       0.0546436 -0.28438675 -0.03076848 -0.048457805
000020 dd 74 a2 3d 4c e9 1f be 5d ba 3f bd 86 a0 a2 bd
       0.07932446 -0.1561634 -0.04680859 -0.07940774
000030 a1 2b 4d 3d 06 23 b1 bc 66 34 6c 3c 8f e6 f2 3c
       0.050090436 -0.021623146 0.01441679 0.029650955
000040 dd 23 00 bd c0 cf f4 bd fe 34 ee 3d 65 e9 98 3d
       -0.031284202 -0.11953688 0.11631201 0.074663915
000050 83 17 5f 3b 63 a2 10 be 70 ba 28 bd a2 07 bc 3d
       0.0034041114 -0.14124446 -0.041193426 0.09181143
000060 e4 56 1c 3c 10 a8 8f 3d 2f d7 41 3d f5 a7 8c bd
       0.009542201 0.07014477 0.047324356 -0.06867973
000070 bc 97 ff bd 51 bc 53 3e 42 03 6e 3e 85 86 7c 3d
       -0.12480113 0.20677306 0.2324343 0.061651725
000080 ca 7a 36 3e 92 70 51 be e1 85 3d be 83 81 fa bc
       0.17820278 -0.20453098 -0.18508102 -0.030579334
000090 af 18 31 3d b2 3a a1 3d 6d e2 46 3d fd b8 1a 3d
       0.04323643 0.07872523 0.04855578 0.037774075
0000a0 b6 d6 b6 3d 22 dc 9f 3d 69 a7 ab 3d ce 86 a9 3c
       0.089276716 0.07805659 0.0838154 0.020694163
0000b0 95 e0 13 3e 91 a9 e3 3d 3d 8c ea 3b 6a 78 32 3d
       0.1444114 0.111163266 0.007157831 0.043571867
0000c0 4c ae 91 3e 66 9a 18 3e fb f3 9b 3a e7 4b 17 bb
       0.2845329 0.14902648 0.0011898273 -0.0023086013
0000d0 1c 3d 37 3e 3b 55 99 bd aa b8 ac bd e6 24 16 3d
       0.17894405 -0.074869595 -0.084336594 0.036656283
0000e0 6e e2 3f 3e 5c 81 49 3d da 36 f2 3d 47 28 a5 be
       0.1873872 0.049195632 0.11826868 -0.32257292
0000f0 34 c7 2e bd 02 21 6c 3e 54 e3 ee 3c 22 38 14 3e
       -0.042670444 0.23059466 0.029161133 0.14474538
000100 74 24 8a bd 80 43 04 be b0 eb a2 3e e9 85 49 3d
       -0.06745234 -0.12916374 0.3182044 0.049199972
000110 a7 a2 14 3d 2b 96 5e be 85 77 31 be ad 2a 57 be
       0.03628793 -0.21736972 -0.1733075 -0.21012373
000120 0c a9 09 3e 38 a4 64 bd 5b 88 df 3d 7d dd f2 bd
       0.13443393 -0.055820674 0.109146796 -0.11858652
000130 33 e5 04 be 61 40 1b be 04 14 d7 bd bd 6d 7f be
       -0.12978058 -0.15161277 -0.105018646 -0.24944206
000140 cd 4c 4f bb 53 68 27 3d 1d fd 36 bd 4b 5a 70 3e
       -0.003163147 0.040870976 -0.04467498 0.23471944
000150 fd 0c 45 be 77 b4 a8 bc 54 2d 0e be dd c1 58 3d
       -0.19243236 -0.020593865 -0.13884479 0.052919257
000160 fc 51 a7 bd 41 40 0a 3e 63 41 53 bd fd 88 36 be
       -0.08169934 0.13501073 -0.05157603 -0.17825694
000170 ba 07 cf bd 33 94 0e 3e 96 1d c5 3c 57 c6 72 3d
       -0.101088956 0.13923721 0.02406196 0.059271183
000180 82 bc 7b 3d 26 3f 11 3e d1 bb 35 3e 0c 27 1e 3e
       0.061459072 0.14184245 0.17747428 0.15444583
000190 6f 38 e6 3d c9 11 a3 3e 12 f8 bb bd 44 4c 1e bd
       0.112412326 0.31849506 -0.09178175 -0.03864695
0001a0 fb 79 01 3e 2f 27 6b 3d c9 ce 69 3b 37 d2 bf bd
       0.12644188 0.057410415 0.0035676232 -0.09366267
0001b0 92 fd 51 be bd 80 23 be 0f f5 8b 3e 35 5b b2 bd
       -0.20506886 -0.15967079 0.27335402 -0.087088026
0001c0 ba 32 fe bd f8 6b d8 3d af 7e 39 bd cd 74 86 bd
       -0.12412019 0.105674684 -0.04528683 -0.06565247
0001d0 98 ec 5a 3d 15 fd 84 3e 8f fc 23 3e 16 f0 8b 3d
       0.05344829 0.25974336 0.16014312 0.06832902
0001e0 2b 02 28 3d eb 9b 89 3c f0 7e 24 3d c7 09 4c 3d
       0.041017693 0.01679798 0.04016012 0.049814012
0001f0 e7 b7 96 bd 82 cf 6f 3c cf 6d 42 be 09 79 fe bd
       -0.07359295 0.014636876 -0.18987201 -0.124254294
000200 52 43 59 3b 72 29 c2 bd bd 88 82 be 86 9c 31 bd
       0.0033151698 -0.09480561 -0.25494948 -0.043362163
000210 d4 62 ae bd c4 b4 89 be 02 f6 47 3d c7 c0 80 be
       -0.08514944 -0.26895726 0.048818596 -0.25147077
000220 c9 55 2e ba 0e cc e1 3d 5b 97 bc 3d 03 3e a6 3d
       -0.0006650356 0.110252485 0.09208556 0.081172965
000230 dd c6 65 3d a1 f5 2d 3e ff e0 12 3e e9 d4 62 be
       0.056097854 0.16988231 0.14343642 -0.22151531
000240 df a5 9c bd eb e8 62 3e 26 80 19 be 1d 75 7d be
       -0.07648825 0.22159164 -0.14990291 -0.24751706
000250 58 27 4e 3e e2 10 44 bd 26 de 5b 3e a8 5c b1 bc
       0.20132196 -0.047867663 0.21471462 -0.021650627
000260 86 77 77 be 27 4d 30 39 62 3a 99 bd 54 be 70 bc
       -0.24166688 0.0001681341 -0.07481839 -0.014693815
000270 6d d8 65 3e 24 d9 52 3d 9c 70 66 bd d3 98 65 bd
       0.22445841 0.051476613 -0.056259736 -0.056053948
000280 1f 60 1f be 24 c5 19 be 99 7a c1 3d 56 81 92 3d
       -0.15564011 -0.1501661 0.09447212 0.07153575
000290 09 7b 14 3e a9 d6 ac 3d 95 e5 c2 3d 4d 33 67 be
       0.14500059 0.08439381 0.095164455 -0.22578163
0002a0 96 4c 78 bd 6e 24 4c be 87 2e d1 3d a2 70 88 bd
       -0.060619913 -0.19935772 0.102139525 -0.06662108
0002b0 84 22 cd 3d ff 29 77 bd 50 f3 46 3e 98 8f 88 bd
       0.10016349 -0.060342785 0.19428754 -0.06668013
0002c0 ff 81 23 3e 01 8e f2 3c 25 62 52 3e 70 66 38 bd
       0.15967558 0.029608728 0.20545252 -0.045019567
0002d0 18 74 b0 3d c1 b0 ae bc c6 fd 78 3d 65 02 39 bd
       0.08615893 -0.021324517 0.060788892 -0.0451683
0002e0 91 3f da 3d f7 15 2c 3e 32 4c 5b 3d 19 df dd 3d
       0.106566556 0.16805254 0.053539462 0.10833568
0002f0 93 d9 2f 3d d9 a9 22 be 85 2a ac 3b 38 e8 8e bd
       0.042932104 -0.15885104 0.005254092 -0.06977886
000300 7a 25 cd 3d db 79 e5 bc e5 66 c4 3d 54 76 fc 3d
       0.10016914 -0.028012207 0.09589938 0.12327257
000310 9f f8 d1 bd d6 0e 4f 3d d5 89 36 bd 8d de c5 3d
       -0.10252499 0.050551258 -0.04456504 0.09661589
000320 00 57 8b bd 2a cd b1 bc d4 84 90 bc e3 cd f5 bd
       -0.06803703 -0.021704275 -0.017641462 -0.120021604
000330 9e bf 34 be fd 7b 77 3d 8f 0a 0a 3c 27 f6 1b 3e
       -0.17651221 0.06042098 0.008425369 0.15230618
000340 f5 e3 ac 3c 3e 07 ee bd d6 00 c7 3d 6f 34 e9 3d
       0.021104792 -0.11622475 0.09716956 0.11386954
000350 b1 23 2b 3e 1a 9a a1 bd 8d 30 fa 3d 94 52 ac 3d
       0.16712834 -0.07890721 0.122162916 0.08414188
000360 73 8e 3c 3e e1 67 07 be 91 38 fc 3d a3 41 06 3a
       0.18413715 -0.1322322 0.12315477 0.0005121475
000370 18 8b 5c bd c2 02 57 3e 06 d7 fd 3d c5 f5 41 3d
       -0.053843588 0.20997146 0.12394528 0.047353525
000380 fc 08 d8 bc 87 8e 00 3d 7c b1 e6 bc b4 5b 73 be
       -0.026371472 0.031385925 -0.028160803 -0.2376545
000390 80 f7 21 be 9c 37 0b 3e 8b 34 fc 3d 45 30 2d bd
       -0.1581707 0.13595432 0.12314709 -0.04228236
0003a0 aa 4f aa bb 96 df 77 bd 81 45 a6 3d 1e ee 91 3b
       -0.005197485 -0.060515963 0.081187256 0.0044534346
0003b0 8e b0 d7 bd 04 8c 35 3e 50 7e 89 bc cc e3 cd bd
       -0.10531722 0.17729193 -0.016783863 -0.100532144
0003c0 c7 4c 2a be a5 97 42 3b 6e 48 56 be 5c 9f 74 3d
       -0.1663085 0.0029692438 -0.20926067 0.05972229
0003d0 ee 30 d1 bd 9c be 2f 3d 4e ba 70 bd 9a f0 c6 3d
       -0.10214411 0.04290639 -0.058771424 0.0971386
0003e0 23 c2 00 3e 22 1f b6 bd cf 57 06 3c 0a 4a d6 3d
       0.12574057 -0.08892657 0.008199646 0.104633406
0003f0 93 5c 9a 3d c3 5d 7f bd a0 91 b6 bd 99 a4 89 bd
       0.075371884 -0.062345278 -0.089144945 -0.06720848

encoder.weight_hh_l0 f4 [256, 64]
000000 0c f4 17 be a0 75 7d 3e 79 f0 96 3e ad d8 f9 bb
       -0.1483919 0.24751902 0.2948034 -0.0076247067
000010 a7 8a 8b bd 40 94 2b 3d 40 63 96 bc be 04 76 3e
       -0.06813555 0.04188943 -0.018357873 0.24025247
000020 bb bf 26 be de df 8b be 2a d9 0c be cf 7c 58 bd
       -0.16284077 -0.27319235 -0.13754717 -0.0528534
000030 1f a6 9a bc 2c bc 33 be b1 68 a7 3d 75 11 10 be
       -0.01887804 -0.1755225 0.08174265 -0.1406916
000040 5f f7 49 3e 57 d8 43 bc b9 8d 85 be 42 1d ae 3d
       0.19723271 -0.011953435 -0.26084688 0.08501674
000050 5b 6a 9f 3e 39 df e4 3d b5 5d 27 3e aa 2e c0 bd
       0.3113583 0.11175389 0.1634434 -0.093839005
000060 49 a2 de bd 77 fc 9a 3c 6d 56 07 bd f0 13 a0 3e
       -0.10870797 0.018919213 -0.033041406 0.3126521
000070 d4 2d fb 3c 32 e1 9e bc 4f 00 7b 3e e3 d4 26 bd
       0.030661501 -0.01939449 0.24511836 -0.04073037
000080 77 e6 c9 3d c1 cd 76 3c ed 68 e6 3c 36 fd 75 be
       0.09858411 0.015063704 0.028126204 -0.24022374
000090 ae 66 d8 bd 15 08 2d 3e b2 e8 89 3d ae 6b 8d 3e
       -0.105664596 0.16897614 0.06733836 0.27621216
0000a0 94 24 74 be 2c 97 1e 3e ac 9a c3 3e b3 10 d8 bd
       -0.23842078 0.15487355 0.38203943 -0.1055006
0000b0 6d fe b9 3c ea f1 bb bc 19 a0 87 3c 4a 48 2e 3e
       0.022704327 -0.022942502 0.016555833 0.17019764
0000c0 38 96 dc 3d ae 6e 15 be 1e 63 33 be d3 ef 6a be
       0.107708395 -0.14593002 -0.17518279 -0.22943048
0000d0 da 25 38 3c 8c 7b 73 3d 74 b0 21 be 48 0f 57 3e
       0.011239493 0.059443995 -0.15789968 0.21001923
0000e0 ec 64 ea 3d 41 5e 1a be 2e b1 9c 3e a0 2c ca bd
       0.114450306 -0.15075018 0.30603927 -0.09871793
0000f0 d9 96 5f be a4 c5 98 3e 7b 56 41 3e df 2f 9a 3d
       -0.21834888 0.29838288 0.18880646 0.07528662
000100 07 8d 2a be ee 69 d6 3e 50 cf 25 3e c9 f3 ab 3d
       -0.1665536 0.41877693 0.16192365 0.08396108
000110 35 9e e5 bd f9 7f 9e 3d cb fd 3c be dd a2 b4 3e
       -0.11211816 0.077392526 -0.1845619 0.35280505
000120 4a 5b 82 be 38 08 24 3c b2 d5 d3 be 8b d1 71 bb
       -0.25460273 0.010011725 -0.41373974 -0.003689858
000130 13 32 b8 bd 66 e8 19 bd 4f ec 5c 3d 6d 7e 83 be
       -0.08993926 -0.037575148 0.0539363 -0.25682393
000140 e4 48 44 3c b0 42 9c bd 4f 91 02 be 28 59 1c 3d
       0.011980269 -0.07629907 -0.12750743 0.038170964
000150 cd e6 2e 3c ab 5b e6 bc cc f0 b1 be 48 f7 a2 3d
       0.010675144 -0.028119883 -0.34754026 0.079573214
000160 4b ce 93 bc 71 a1 a9 3b 99 ea 97 bd 11 eb c1 3d
       -0.018042704 0.005176716 -0.07417793 0.094686635
000170 1f 85 c7 bd 75 67 56 bd 74 9e bf 3e bf 11 af be
       -0.09742188 -0.052344758 0.37425578 -0.34193227
000180 a4 32 f6 3e 3f 27 bc 3d 3f 4a eb be a4 de 58 3e
       0.4808551 0.09187173 -0.45955083 0.2117868
000190 2e 67 fc bd c7 44 e3 bd 4a 45 c5 bc 4d 46 36 be
       -0.123243675 -0.110971026 -0.024080891 -0.17800255
0001a0 87 4b 10 be 2c 2e da bd 9b a7 4c be ca 2c da be
       -0.14091311 -0.10653338 -0.19985811 -0.42612296
0001b0 89 db 1f be 11 0f d0 3c 9c 5a 72 bd 6c 09 44 be
       -0.1561109 0.02539781 -0.059168443 -0.19144219
0001c0 e1 d9 70 be 9b d7 92 3d 56 41 6a 3d ef 91 97 be
       -0.23520614 0.0717003 0.057191215 -0.29603526
0001d0 e5 5c 98 3d 10 3f e8 bc 61 59 3e 3d de 41 36 3e
       0.07439593 -0.028350383 0.046471957 0.17798564
0001e0 db ed d1 3d f7 33 18 bd 09 de c8 3e a9 45 df be
       0.102504455 -0.037158933 0.392319 -0.43607834
0001f0 fb 5e ff 3c aa 0f d3 3c 28 c5 a0 3e 49 f5 4b be
       0.03117322 0.025764305 0.31400418 -0.19917788
000200 9b c1 19 bd fe 1f 41 3e 56 a1 70 3e 2a f1 a7 3d
       -0.037538152 0.1885986 0.23499045 0.08200295
000210 b8 57 11 bf e6 de e4 3c 25 d8 09 3e 14 7b 50 3e
       -0.56774473 0.027938318 0.13461359 0.2035945
000220 6d b9 bf 3c ee 30 32 bf 61 6b dd bd 5b ca 8a be
       0.023403848 -0.6960591 -0.108114965 -0.2710751
000230 0a a9 9b 3d 18 c3 07 3e d3 94 2d 3e 70 56 cd be
       0.07600601 0.13258016 0.16951303 -0.4010501
000240 d0 4b ff 3e 39 f2 19 3e 11 16 28 bf 62 06 88 3e
       0.49862528 0.15033807 -0.6565867 0.2656737
000250 93 1a 3c 3e 67 c3 65 bd a7 c1 f4 3c 5b 5a 60 bd
       0.18369512 -0.056094553 0.029877497 -0.05477367
000260 36 33 93 bb 3e bd 98 3d c9 5e 65 3e 83 f2 09 3e
       -0.004492189 0.0745797 0.22399439 0.13471417
000270 63 4c e8 bd df 40 8f 3e 75 33 dc bc d8 f6 d1 3c
       -0.113426946 0.2797918 -0.026880005 0.0256304
000280 6c 27 e6 bd 9a 38 59 be 95 ca fa bc e9 2c 91 be
       -0.11237988 -0.21212998 -0.030614177 -0.28354576
000290 36 10 dc bc b2 16 0b be 8d c5 66 bd e7 f5 45 be
       -0.026863199 -0.13582876 -0.056340743 -0.19332086
0002a0 76 fe 38 bd 53 44 75 3d 8f 5e 5f 3e 17 a8 1b be
       -0.045164548 0.059879612 0.21813415 -0.1520084
0002b0 62 96 2a 3d 46 6e 19 3f ce 6b bf 3d 68 da 08 3e
       0.041647322 0.5993389 0.09346734 0.13364565
0002c0 d3 4d 12 be ff 96 9e 3e 87 bf 2f be c6 b3 41 be
       -0.142875 0.30974576 -0.17162906 -0.18916234
0002d0 4a 06 c9 3c 4b 57 27 3e 1c d4 43 3d b6 f7 58 3d
       0.024539132 0.16341893 0.047809705 0.05297061
0002e0 f1 28 58 3e 88 32 d2 bc 5e 5b eb 3d f3 86 bf bd
       0.21109368 -0.02565886 0.11492036 -0.093519114
0002f0 de 57 58 3d 23 49 1c 3f 12 3c 88 bc 07 6f f1 3c
       0.05281817 0.610491 -0.016630206 0.029471887
000300 49 73 da 3d 25 b8 33 be f8 8e 9c be d6 7e fa be
       0.1066652 -0.17550714 -0.30577826 -0.48924893
000310 00 95 47 3e 69 4e 7b 3e 79 f4 f6 3d 0e 80 bc 3a
       0.19490433 0.2454163 0.12058348 0.0014381425
000320 23 74 09 3c 40 23 36 3e 7c 70 07 3e c5 84 04 3e
       0.008389506 0.17786884 0.13226503 0.12941273
000330 34 9a 79 be 30 e9 db bd 0c 92 53 3d 0c 70 63 3d
       -0.2437523 -0.10737836 0.051652953 0.055526778
000340 49 0d 5e be 8a dd 0b 3e d1 f9 1e 3e 78 e1 09 3d
       -0.21684755 0.13658729 0.15524985 0.03366229
000350 e8 d4 7a be b8 05 a8 3c da 30 46 be f2 8b 4d bc
       -0.2449528 0.02051054 -0.19354573 -0.012545573
000360 c7 be bb 3d a4 4d 63 3e e0 3b 71 3e 32 cd a9 bc
       0.09167247 0.22197586 0.23557997 -0.020727728
000370 81 9e 0b 3e 6a 6a bc bd 5e ed 54 3d df 10 11 3d
       0.13634683 -0.09199984 0.051984183 0.03541648
000380 f5 4b e0 bd fb 3f f9 3d 66 26 2b be 9c 79 5d 3e
       -0.10951988 0.121704064 -0.16713867 0.21628422
000390 5e 9e 81 3e 4e 83 ae 3e c9 5d 47 bd d5 e9 29 bc
       0.25316137 0.34084553 -0.048673425 -0.010370691
0003a0 2a 8c 6e 3e f2 d1 17 3e 1d fe 20 3e 66 69 34 3d
       0.23295656 0.14826182 0.15721937 0.04404583
0003b0 08 c6 22 bb 74 cc fc bd 0d c9 10 be bf 9d 7e be
       -0.0024837274 -0.12343684 -0.14139195 -0.24864863
0003c0 f8 1d 09 be 5d a7 aa be d8 e9 36 bd 97 72 60 3d
       -0.13390338 -0.33330813 -0.044656605 0.05479678
0003d0 8b b3 d4 3d b6 b1 7b be b6 65 d6 3d 78 8d 99 3d
       0.103858076 -0.2457951 0.104686186 0.07497686
0003e0 63 6d 05 bd e7 cb 8c bc 9c c0 cc 3a 13 af 1d 3e
       -0.032575022 -0.017187072 0.0015621367 0.15398817
0003f0 28 95 97 bd 8f 93 df bd 6a 8d c6 be 09 ec 18 bd
       -0.07401496 -0.109168164 -0.38779765 -0.037334476

encoder.bias_ih_l0 f4 [256]
000000 50 3d a4 bb c6 95 10 3e ad dd 30 3e b6 dc 3d 3e
       -0.005012192 0.14119634 0.17272063 0.18541226
000010 2c c7 e2 3e 0a 3b 1c 3e 07 05 35 3e d3 6b 67 3e
       0.4429258 0.15256897 0.17677699 0.22599725
000020 b2 22 3a 3e 05 61 2f 3e 3c 82 89 3e e2 99 46 bd
       0.18177298 0.17126854 0.26857173 -0.048486598
000030 83 fc ee 3d d4 6e 84 3e cb 4e b3 3c c4 d0 96 3e
       0.116692565 0.25865805 0.021888157 0.2945615
000040 3d d3 25 3e 62 77 0f 3c a5 b7 a9 3e 46 b2 d4 3d
       0.16193862 0.00875649 0.33147922 0.103855655
000050 38 a0 88 3e d4 f5 eb bd 7b 96 9e 3d f9 84 ce bd
       0.26684737 -0.11521497 0.077435456 -0.10083956
000060 85 81 65 3e 8b 68 16 3e 8d 95 6f 3e 6b a1 fe 3d
       0.22412689 0.14688317 0.23396893 0.12433132
000070 6a 40 fb 3e b1 ab 5f 3c fa f3 3f bd 75 88 54 3e
       0.49072582 0.013651774 -0.046863534 0.20755179
000080 a1 3d 77 3e 37 78 4d 3e 67 08 58 3e d5 0b 8d 3e
       0.24144603 0.2006539 0.21096955 0.2754809
000090 8a 18 41 3e 06 e0 b7 3e 3c 98 2c 3d bc a8 9f 3e
       0.18857017 0.35913104 0.04213737 0.31183422
0000a0 f3 4e 0e 3e 2d d6 98 3d 65 d3 65 bc 08 e2 2c 3e
       0.13897304 0.07462726 -0.014027451 0.16883099
0000b0 f0 1f 05 3e a0 e0 0e 3e c9 c1 a9 3e ca 8a ce 3d
       0.13000464 0.13952875 0.3315566 0.10085066
0000c0 1f ce a5 3e 63 42 05 3e 0a fc 27 3e 36 05 55 3e
       0.3238382 0.13013606 0.16404739 0.20802769
0000d0 75 86 04 bd 91 0f 77 3e dd 8f 7b 3e 50 33 29 3e
       -0.03235479 0.24127032 0.24566598 0.1652348
0000e0 2c e0 10 3e a8 8c 57 3e 03 52 bf 3d 9e 8e 2f 3e
       0.14148015 0.2104975 0.09341814 0.17144248
0000f0 6f 74 84 3e b7 ed 4e bc 80 82 ad bd 12 31 a0 3e
       0.25870082 -0.012629918 -0.084721565 0.31287438
000100 13 ee c0 3c c4 68 e9 bb 86 8d f4 3d 3d 68 b2 bc
       0.023551023 -0.0071230847 0.11941056 -0.02177822
000110 52 bf 69 3d 6f 03 87 3c d7 77 07 be 2d fe 69 bd
       0.057067223 0.01648113 -0.13229309 -0.057127167
000120 74 15 92 3d 07 29 45 3d c1 48 ef bd fa 8b f5 3d
       0.07132998 0.04813483 -0.116837986 0.11989589
000130 5d b9 97 3d 79 dc f2 3d bb e8 62 3e 21 a1 7f bd
       0.07408402 0.11858458 0.22159092 -0.062409524
000140 7a d3 d8 3d 1d 15 50 3e 04 c6 c8 3e 3d 2a 30 3d
       0.10587211 0.20320554 0.39213574 0.04300903
000150 53 36 44 be 92 07 77 3d bc 2b 89 bd d8 35 0c 3e
       -0.19161348 0.060309954 -0.06697795 0.13692415
000160 ad e1 62 be b1 f9 ce bc 3c d6 be 3c e7 06 ab bd
       -0.22156401 -0.025265547 0.023295514 -0.08350926
000170 6c 18 b3 3d 0a 05 a2 3e 30 a6 12 be 77 6e 5a bd
       0.087448925 0.3164447 -0.14321208 -0.053328004
000180 bd 38 a3 bd 5e f0 e2 bd 22 10 43 bd 87 fc cb 3c
       -0.07969806 -0.11081003 -0.047622807 0.024900688
000190 53 b3 e5 bb 8e b5 a4 3e 2b a6 32 3e 23 e3 1d bd
       -0.0070099025 0.32169765 0.174462 -0.038546693
0001a0 12 92 a0 bd 8e ea 9e bd 79 81 a1 3d 6d 08 19 bd
       -0.07840361 -0.077595815 0.07886023 -0.03736155
0001b0 3d bf 0f bd f1 45 0f 3e 26 ac 26 be b2 84 62 3d
       -0.03509449 0.13991524 -0.16276607 0.05530233
0001c0 76 32 94 3e f8 9e 25 3e 29 89 2d 3e 07 ad b8 bc
       0.2894475 0.16173923 0.16946854 -0.022543443
0001d0 4d de 04 3e a4 ce 16 be 8c 95 47 3e ec bd 13 be
       0.12975426 -0.14727265 0.19490641 -0.14427918
0001e0 4f 3f 18 be ce 9b 2d 3d 22 ed c3 bd 17 cb 04 bd
       -0.148679 0.042384915 -0.09566714 -0.032420244
0001f0 af f7 8d bd 37 4a 51 bd d8 e3 23 be 00 fa 18 3e
       -0.069320075 -0.051096167 -0.16004884 0.14939117
000200 47 3b c6 3d c0 d8 df bc a9 82 9e 3e fc 1c bb 3c
       0.09679275 -0.027325034 0.3095906 0.02284097
000210 60 35 6d be 14 ff c1 3d 8d a9 07 3e ab e3 00 bc
       -0.23164892 0.094724804 0.13248272 -0.00786678
000220 1a 5b a1 bb f9 4f 05 be 8d 65 07 be 97 b9 09 3e
       -0.00492419 -0.13018788 -0.13222332 0.13449703
000230 ea a2 e7 bc ba 9e 93 3d d2 8e 17 3e 10 b9 05 be
       -0.028275926 0.07208009 0.14800575 -0.13058877
000240 9b 6d ab 3e 81 5a 8d bd e5 1e da be 39 da 69 3e
       0.3348206 -0.06902028 -0.42601696 0.22837152
000250 53 71 5a 3d 9b dd e8 bd 2d 71 f9 bd e6 93 ea 3b
       0.05333073 -0.11370393 -0.1217979 0.007158744
000260 86 e0 f4 3d 49 b4 7c 3d 0f 88 31 3e a6 ea 90 bd
       0.11956887 0.06169537 0.17337058 -0.07076006
000270 3a 58 86 be 91 15 22 3e 35 9c 4c 3e 95 a2 94 bd
       -0.26239187 0.1582854 0.19981463 -0.072575726
000280 2b 3f c8 3c 79 d7 67 3d f1 b6 63 be 3e a0 c4 bd
       0.024444183 0.056601975 -0.22237755 -0.09600876
000290 0b 52 f9 bd 69 c8 84 bd 9e cb a7 be a2 1d b5 be
       -0.121738516 -0.06483538 -0.32772535 -0.3537417
0002a0 69 11 90 bc 2f 3f 93 bd ae 51 7c bd 6c fc b4 bd
       -0.017586427 -0.07189786 -0.061601333 -0.08837208
0002b0 c2 5c c7 3d 4a 95 49 3e 7b c7 90 bd b4 47 d3 bd
       0.09734489 0.19685856 -0.07069298 -0.10316411
0002c0 46 f3 47 be c8 3a dc 3d a5 65 b8 3d 1b 2b 0e bb
       -0.19526395 0.10753399 0.09003762 -0.0021693173
0002d0 5c ab dc 3d 3d bf a9 3d 96 9d 05 3e 2a f5 8b 3e
       0.10774872 0.08288429 0.13048396 0.27335483
0002e0 25 1d 23 be 10 f2 b2 3e f5 b9 94 bd 41 f9 34 bd
       -0.15929087 0.34950304 -0.07262031 -0.04418302
0002f0 c4 83 ab 3d 00 12 9c 3d 2d 0c 06 be d3 18 a0 be
       0.08374742 0.07620621 -0.13090582 -0.3126894
000300 a4 df 2c 3e fa b3 98 3e f2 63 46 3e d7 6d 6b 3e
       0.16882187 0.2982481 0.19374064 0.2299112
000310 91 c4 e6 3e 6a a0 c8 3e ce 2e a7 3e 3e 34 d5 3e
       0.45071843 0.39184886 0.32652897 0.4164142
000320 da 98 d0 3e 7c 6d 20 3e 3c 3e c6 3e 2c 47 70 3e
       0.40741616 0.15666765 0.38719356 0.2346465
000330 ec 01 96 3e d2 08 a5 3e 5e 78 b4 3e 07 24 65 3e
       0.2929834 0.32233292 0.35248083 0.22377025
000340 a4 71 a2 3e db 04 e2 3e f0 16 f8 3e 29 4a 2a 3e
       0.31727326 0.4414433 0.48455 0.16629852
000350 10 76 c9 3e 40 47 ff 3d f4 42 99 3e cf 17 65 3e
       0.39347887 0.12464762 0.29933894 0.22372364
000360 ab ba e4 3e cb 2c 50 3e 6f cd 32 3e d9 5b e9 3e
       0.44673666 0.20329587 0.17461179 0.45577887
000370 38 35 81 3e 72 e1 1b 3e d8 f3 9f 3e 04 4f e6 3e
       0.25235915 0.1522272 0.31240726 0.4498216
000380 3e 52 bb 3e e0 ba 82 3e 28 08 f0 3e c3 36 ea 3e
       0.36586183 0.255332 0.46881223 0.45744905
000390 34 95 cd 3e 54 05 29 3f 41 d8 a8 3e 32 f4 f5 3d
       0.40152895 0.66023755 0.3297749 0.12009467
0003a0 f3 2b a0 3e 36 ba da 3e 8b d8 b7 3d 1f f7 9f 3e
       0.3128353 0.42720193 0.08976849 0.31243226
0003b0 a9 72 ec 3e 0e c3 87 3e 59 70 a9 3e 06 49 7e 3e
       0.4618123 0.26516002 0.33093527 0.24832544
0003c0 cf 6d f4 3e 82 7c 16 3e 4f f9 cb 3e 86 60 87 3e
       0.47740027 0.14695933 0.39838645 0.2644083
0003d0 fb 4f 3e 3d ae 9b 9c 3e b1 9b 9a 3e b4 8f b0 3e
       0.046462994 0.30587524 0.30196908 0.34484637
0003e0 65 32 df 3e e5 f2 0a 3f 2a ac 4f 3e 46 8a 8d 3e
       0.43593135 0.5427688 0.20280519 0.27644557
0003f0 18 dd a8 3e 08 7b 85 3e f6 8e b7 3e e8 9f 13 3f
       0.3298118 0.26070428 0.35851258 0.5766587

encoder.bias_hh_l0 f4 [256]
000000 d0 2c fb bd c2 0c 01 3e 68 91 00 3e e7 74 8c 3e
       -0.12264407 0.12602523 0.12555468 0.2743294
000010 b7 d2 e2 3e a1 bc 29 3e 9c 85 8a 3e 7f cc 9b 3e
       0.44301388 0.16575862 0.2705506 0.30429456
000020 c5 04 69 3d 4d 3f 1e 3e d9 00 00 3e f0 9b 9f bd
       0.056889314 0.15453835 0.12500323 -0.077934146
000030 f6 4a 11 bc e4 d2 ec 3c 73 80 1e 3e a1 b8 b2 3e
       -0.00886797 0.028909154 0.15478687 0.34906486
000040 a2 fb c9 3d d7 81 e7 3d b7 09 9b 3e 9c 73 b9 3d
       0.09862448 0.11304062 0.3028085 0.09055254
000050 d1 15 27 3e 4e a4 93 3d e1 20 a7 3c 44 c7 89 3c
       0.16316916 0.07209073 0.02040142 0.01681865
000060 0b 5f c1 3d df c5 a2 3e 9c 6c 5c 3e 83 fc 9c 3e
       0.09441956 0.3179159 0.21525806 0.306614
000070 7a 0f e2 3e 30 73 2f 3e 21 ac 24 3d dd 0b 12 3e
       0.44152433 0.17133784 0.040203217 0.14262338
000080 5e 14 88 3e c5 5d 63 3e bc 37 b7 3e 19 be 18 3e
       0.2657804 0.22203739 0.3578471 0.14916267
000090 e5 a1 c3 3e de 95 6a 3e e2 31 51 3e 25 1d 40 3e
       0.38209453 0.22908732 0.20429185 0.18761118
0000a0 f5 42 63 3e 86 9f 66 3e 51 50 35 bd 7b c2 a0 3d
       0.22193511 0.22521791 -0.04426605 0.07849594
0000b0 f1 84 47 3e 25 37 41 3e 0d 39 19 3e 34 6e 5d 3d
       0.19484307 0.18868692 0.1496317 0.054060176
0000c0 a3 44 cb 3e 76 01 54 3e e4 53 32 3e 02 a8 a6 3e
       0.39700803 0.20703682 0.17414814 0.32550055
0000d0 19 1c 57 3d 25 01 4b 3e a4 7b 93 3e d3 d0 4f 3e
       0.05251703 0.19824655 0.28805268 0.20294504
0000e0 d7 21 90 3e ba d8 90 3e 1c 28 31 3d 20 1d ae 3e
       0.28150818 0.2829035 0.043251142 0.34006596
0000f0 f7 54 21 3e 0d 51 79 3d 6f c8 01 3d 89 45 90 3e
       0.15755068 0.06086831 0.03168529 0.2817805
000100 38 28 c3 bb 2b d0 51 be 55 0a 0b 3e 53 c1 4a 3e
       -0.005955722 -0.20489566 0.1357816 0.1980031
000110 29 a0 bb 3d 18 ea b6 bc 26 9a 0c be 63 2c 94 bd
       0.091614075 -0.022328421 -0.13730678 -0.072350286
000120 dd 1a 1d 3e fb 2c 17 3e 5c 75 0f bd d4 6b 35 3e
       0.15342279 0.14763252 -0.035024032 0.17716914
000130 24 0e d6 3c cc d5 1f 3d 32 54 2b 3e 93 ed 9d 3d
       0.02612979 0.039022252 0.16731337 0.07711329
000140 bf bf 58 3e 59 1d 92 3d c3 32 bb 3e f5 e9 af 3d
       0.21166895 0.07134504 0.36562166 0.08589546
000150 e4 f1 8e be 5c 7a 03 3e f9 65 e8 bd 53 14 2f 3e
       -0.27918923 0.12839645 -0.11347575 0.17097597
000160 ea 59 f4 bd 25 a6 10 be cc 63 90 bb 4d b9 41 be
       -0.11931212 -0.14125879 -0.004406428 -0.18918343
000170 b0 4b 07 3e 96 d4 a1 3e 7e fc c3 3c d2 56 1b bc
       0.13212466 0.31607503 0.023924109 -0.009481149
000180 b4 bf a9 bd 88 e5 e2 bd a4 ba 9e 3c c6 9c 28 bd
       -0.082885176 -0.11078936 0.019376107 -0.041165136
000190 bd 58 56 be 14 66 4d 3e c3 11 6a 3e 1f 5b a3 3d
       -0.20932288 0.20058471 0.22858338 0.07976364
0001a0 ad cb 34 be c9 ba 28 be 3a a6 12 3e f7 e5 28 be
       -0.17655821 -0.16477503 0.14321223 -0.16493975
0001b0 a9 59 81 bd aa 36 04 3d c7 d7 c1 bd 61 5a b0 3b
       -0.063159294 0.032278694 -0.094649844 0.0053818678
0001c0 31 db 69 3d b6 89 b6 3d 7f 21 a8 3e 9e 69 40 be
       0.057093803 0.08912985 0.32838055 -0.1879029
0001d0 5f 81 ee 3d 4c a3 75 be be 4b 1e 3e 15 06 22 bd
       0.11645769 -0.23988074 0.15458581 -0.03955658
0001e0 e7 7d 6e bd 55 aa b8 bd 1e 79 46 be 2b aa c3 3d
       -0.05822554 -0.09016863 -0.1938214 0.09553941
0001f0 ad 69 da 3d 3f d5 78 bd fd ba 19 bb 63 90 b4 3d
       0.10664687 -0.060750242 -0.00234574 0.08816602
000200 06 35 4d 3e bb 6d a6 3d 30 14 a1 3e 17 af 3a 3e
       0.20039758 0.08126398 0.31460714 0.18230854
000210 e5 e6 5d be 51 82 bd 3b 86 cc 46 3e 01 82 1c 3e
       -0.2167011 0.005783357 0.19413957 0.15283968
000220 2b 90 ff 3d fb 09 0c 3c 7e 65 8b 3a 4d 35 0c bd
       0.1247867 0.008547301 0.0010635105 -0.03423052
000230 dd 46 d7 bd 90 49 e9 3d 00 9d eb 3d 5f 4a 00 3d
       -0.10511563 0.11390984 0.11504555 0.031320926
000240 c4 d0 62 3e b6 f0 2f 3e 87 f2 bf be d4 18 18 3e
       0.2214995 0.17181668 -0.3748972 0.14853221
000250 f7 f5 18 be 66 05 ec bc 7d da 6c 3d b2 99 f5 3d
       -0.14937578 -0.028811168 0.057825554 0.11992206
000260 19 d7 e8 3d 6f 21 1e 3e 89 29 58 3e 08 ab 82 3d
       0.113691516 0.15442441 0.21109594 0.06380278
000270 49 93 b5 bd aa 05 67 3e 70 a5 c1 3d ca 0b 81 bc
       -0.08865983 0.22560754 0.09455383 -0.015752692
000280 ed 19 8e 3d 72 50 e5 3d 68 ff 5c be c0 aa 48 be
       0.06938539 0.11196984 -0.21581805 -0.19596386
000290 ee 1b 6d be 61 29 5f be 09 5e 54 be d9 72 ac be
       -0.23155186 -0.21793129 -0.20738997 -0.33681372
0002a0 92 85 80 3d 1b d0 8a 3d 37 51 e6 3c 52 67 a4 3d
       0.062754765 0.06777974 0.028114898 0.08027519
0002b0 a3 c2 d3 3d b8 49 fd 3c 1c c4 82 3d 86 d4 82 3d
       0.103398584 0.03091894 0.06385061 0.06388192
0002c0 72 f0 21 be 50 86 37 3e 95 8f 08 be ab 4c fb 3c
       -0.15814379 0.1792233 -0.13336022 0.030676207
0002d0 32 bd c8 3c b3 73 ed 3d 58 4b be 3d 35 dc e9 3d
       0.024504278 0.115943335 0.092917144 0.11418954
0002e0 55 14 dd 3c eb fa 10 3e 39 4c d8 ba 01 c1 c7 bd
       0.026987234 0.14158218 -0.0016502208 -0.097536094
0002f0 1d 61 71 3e c0 d6 97 3d d9 6e e0 bd d3 49 9b be
       0.23572202 0.07414007 -0.109586425 -0.3032976
000300 e8 dd 37 3e b9 5f b0 3e cf 18 33 3e 6d 66 bf 3e
       0.17955744 0.3444803 0.17489932 0.37382832
000310 98 7b f8 3e c0 2e 98 3e 29 46 c4 3e 87 2c cc 3e
       0.48531795 0.29723167 0.38334778 0.39877722
000320 5a f2 81 3e 58 2e 73 3e 51 50 e5 3e 44 40 70 3e
       0.25380212 0.23748147 0.4478784 0.23462015
000330 ee 51 c5 3e cc 8b 98 3e 6b 5b 8c 3e 3c d6 8c 3e
       0.3853907 0.29794157 0.27413496 0.27507198
000340 0f 3b 97 3e d1 f4 ac 3e 6d 50 f2 3e 82 f1 98 3e
       0.29537246 0.3378053 0.47326985 0.29871756
000350 5b 21 bc 3e cb e0 d3 3d 55 db a9 3e 74 73 85 3e
       0.36744198 0.1034561 0.3317515 0.26064646
000360 4f e9 ca 3e e9 17 bb 3e 78 41 b1 3e 27 9a cb 3e
       0.39631125 0.3654168 0.3462026 0.39766046
000370 ad 87 97 3e 82 f5 7f 3e bf 5b 58 3e f4 5c d7 3e
       0.295957 0.24995998 0.21128748 0.42063105
000380 11 f5 b3 3e 7e 47 5a 3e 16 54 d2 3e 67 30 95 3e
       0.35147908 0.21316335 0.41079777 0.2913849
000390 81 49 a9 3e 3b d4 23 3f c4 c1 4b 3e 9f 85 49 3e
       0.33063892 0.63995713 0.19898134 0.19679879
0003a0 f7 50 87 3e ec c9 90 3e f0 20 e9 3d 7f 3d 3f 3e
       0.2642896 0.28279054 0.113832355 0.18675803
0003b0 a6 22 a9 3e 53 f6 4b 3e 79 a8 c9 3e d3 c2 ab 3e
       0.33034247 0.19918184 0.39386347 0.33547077
0003c0 b7 43 9d 3e 6a b3 66 3e 17 88 9c 3e 78 fc c5 3e
       0.30715725 0.22529379 0.30572578 0.3866918
0003d0 cc 2b e0 3d 56 fa 8e 3e 7d a1 d7 3d 4e bb 04 3f
       0.109458536 0.27925366 0.10528848 0.51848304
0003e0 05 ac 95 3e ee 34 e5 3e ff bc 83 3e b9 ea 27 3e
       0.29232803 0.44766945 0.2573013 0.16398133
0003f0 1a bc cc 3e 66 28 13 3e bb b5 c7 3e b7 10 04 3f
       0.3998726 0.1437088 0.39005837 0.51588005

decoder.weight_ih_l0 f4 [256, 128]
000000 2f 9a 1d 3d be 99 3d bc 23 8c 9e bd 63 11 10 bd
       0.03847712 -0.0115722995 -0.07741573 -0.03517283
000010 3d c0 3d bb f7 6f 0f bd 4e 58 52 3b dd 20 45 3c
       -0.0028953694 -0.035018887 0.003209609 0.012031761
000020 88 c2 ae 3d 66 03 5a bd 47 9b be bd 48 0d cf 3c
       0.08533198 -0.053225897 -0.093069606 0.025274888
000030 de b7 29 bd 6c bc be 3d 7a 24 02 bd c6 33 11 be
       -0.041435115 0.09313282 -0.031773068 -0.14179906
000040 75 a6 5f 3b 86 41 22 bd ab a4 d0 bd 3b 4d 46 be
       0.0034126316 -0.03961327 -0.10187658 -0.19365399
000050 20 d6 10 3e c1 86 38 bd f0 96 b7 3b b7 6c 2a bd
       0.14144182 -0.045050386 0.00560271 -0.041607585
000060 47 ed 40 3d 2e 0b 1d 3d 5c 66 64 bd 91 54 c3 3d
       0.047101285 0.03834074 -0.05576168 0.09537614
000070 eb 1e 04 3c 45 86 fe 3c f7 76 51 3a 95 3c 8f bc
       0.008064012 0.031069884 0.00079904444 -0.017484942
000080 d1 7c 9b bc 58 78 94 3d af 75 ef bc 29 ad a2 3d
       -0.018980416 0.07249516 -0.02923092 0.07943184
000090 41 60 97 bd 03 ac 89 3b d6 fc ad bd 72 60 f3 3d
       -0.07391406 0.0042014136 -0.0849549 0.1188363
0000a0 7d 53 b5 3d 2b 95 96 3c 1b 95 83 bd 46 46 58 3d
       0.08853815 0.018381676 -0.06424924 0.052801393
0000b0 a4 88 63 bc f0 a9 df bd 40 22 3a 3c 5c 1d 4e 3d
       -0.013887558 -0.10921085 0.011360705 0.050320968
0000c0 68 52 db 3d 00 6d b9 3d 43 3f ba bd 79 01 93 bd
       0.10709077 0.09053993 -0.090940975 -0.07178015
0000d0 ce ee 6f bd 9c f8 cd bc 93 f0 d7 3d df 8e 97 bd
       -0.05857735 -0.02514296 0.10543933 -0.074002974
0000e0 a2 ca 06 bc 73 f7 39 bd 1a bf 2b bd 2b c3 a6 3c
       -0.008227022 -0.045402 -0.041930296 0.020356735
0000f0 ba 8f ee 3c 38 d6 4f bc 62 6a 74 3d 6e 2e 90 3d
       0.029121269 -0.012685351 0.059671767 0.07040106
000100 d0 70 43 3e 6a 7b 84 bc 02 39 21 3d 57 38 28 be
       0.19086003 -0.01617213 0.039361008 -0.16427742
000110 2e c1 a8 3c d9 26 4e 3d f6 c8 36 3d 2f c1 8f 3d
       0.020599928 0.050330017 0.044625245 0.07019269
000120 f2 13 2f 3d 46 c4 8f 3b fa 02 85 3e 83 34 11 3d
       0.04274363 0.0043874113 0.25978833 0.03545047
000130 e2 3f 99 bc 34 ad c0 3c c7 33 11 3d 43 1a bc bc
       -0.01870722 0.02352009 0.03544977 -0.022961741
000140 0b 3a c5 bc 61 df 42 bd a5 88 ae bd b6 1e 82 bd
       -0.024075529 -0.047576312 -0.085221566 -0.06353514
000150 f4 39 ab bd 91 c7 2d be d3 e5 ae 3d 7b 24 3c be
       -0.08360663 -0.1697066 0.08539929 -0.18373291
000160 2c 77 0a be 6e 0b f6 3c f5 00 0b 3e 87 2e fc 3c
       -0.13522023 0.030034747 0.13574584 0.030783905
000170 bc 08 06 be 85 d4 1a bc 23 93 c2 3d 10 d8 b7 bc
       -0.1308927 -0.009450083 0.0950072 -0.022441894
000180 c9 e1 fe bd c6 38 01 bd 41 3a 29 3e 94 56 9b bd
       -0.12445409 -0.031548284 0.16526128 -0.07584873
000190 f7 95 8a 3c d8 c0 88 3c 28 32 cd 3d 1e 8b d6 bd
       0.016917212 0.016693518 0.10019332 -0.10475753
0001a0 ec d9 f1 bc a7 82 26 bd 96 c4 96 3e f7 b5 a9 3d
       -0.029522859 -0.040651944 0.29446858 0.0828666
0001b0 e6 39 70 3c ce d7 c1 3d 35 d1 36 be fa 9e 73 3d
       0.014662242 0.094649896 -0.17853244 0.059477784
0001c0 a9 4b dc bc 0b b5 05 be a0 ce d4 be 4d 63 f6 3c
       -0.026891546 -0.13057344 -0.41563892 0.030076647
0001d0 b4 0f 8c 3d c2 66 00 bd b5 16 7e 3b d3 b7 d2 bd
       0.06838933 -0.031347997 0.0038770859 -0.10288968
0001e0 8e 7c 3c be fc 0c 4f 3e b3 fc 1a bc 84 41 62 3d
       -0.18406889 0.20219797 -0.009459662 0.05523826
0001f0 49 a9 25 3d 2e 44 a3 bc 85 fd 57 3c f5 1d 9e 3c
       0.040444646 -0.019929972 0.013183002 0.019301394
000200 70 3e 17 3d af 3a 5d 3d 10 36 9b 3d 76 33 e0 bd
       0.03692478 0.054011043 0.07578671 -0.109473154
000210 7e 8c 72 bd 52 36 05 3e 1f 06 f3 3d ff 36 2b 3d
       -0.059216015 0.13009003 0.11866402 0.041800495
000220 22 6b 6a bd 30 e8 9e bc 91 0b 53 bc 49 05 64 3d
       -0.057231076 -0.019397825 -0.012881176 0.055669103
000230 78 78 41 bd 3a cd fd 3d 94 68 44 3d af 42 1d 3e
       -0.04723403 0.123926595 0.047951296 0.15357469
000240 c5 b0 02 bd bc 08 ec 3d 1f 48 ba 3d e6 a9 34 bd
       -0.03190686 0.115251034 0.09095787 -0.04410734
000250 a6 c5 e8 bd 14 27 69 bd 34 f0 df bc 0f 9a 8f bd
       -0.113658234 -0.056922033 -0.027336217 -0.07011806
000260 ef 95 d7 3d d2 03 3b 3d 04 42 99 bd ba 4f 04 3e
       0.105266444 0.04565794 -0.074832946 0.12921038
000270 f8 a3 f8 3d ee 0a cb 3c 77 78 2b 3d c2 f6 de 3d
       0.121406496 0.024785485 0.04186293 0.10886909
000280 48 f3 9e 3d 4f 78 45 be 6a 5d 16 3e e9 64 7d 3d
       0.07761246 -0.19284175 0.14684072 0.061863814
000290 fe ef 13 3e e5 7c c8 bd 16 79 ed bc 5a 06 32 bd
       0.14447019 -0.09789447 -0.028988402 -0.04346309
0002a0 e6 c2 e7 bd 00 b4 8f bd f5 f3 93 3c bc 12 09 3d
       -0.11316471 -0.07016754 0.018060664 0.033465132
0002b0 ef fc c2 3d 6b d1 1e 3c 4a 1f 32 be fe 6c a4 bd
       0.095208995 0.009693484 -0.17394748 -0.08028601
0002c0 d5 d3 98 3d ea 56 25 bb 1a d0 d8 bd 2f 5a 72 3d
       0.07462279 -0.0025228807 -0.10586567 0.059168037
0002d0 9f 79 a9 bd 4b 1e 00 3e d9 68 75 3d 45 f4 7f bd
       -0.082751505 0.12511556 0.059914444 -0.062488813
0002e0 e4 39 33 3d cb 1f 06 bb 11 72 27 bd 00 2e a1 bb
       0.04375638 -0.0020465727 -0.040880267 -0.0049188137
0002f0 00 57 08 be af b4 a2 bc 33 df 22 bd e2 58 43 bd
       -0.13314438 -0.019861547 -0.03976364 -0.047692187
000300 ed db 45 bd b7 fe d0 36 81 83 e7 bd 64 04 87 3c
       -0.04830544 6.2285358e-06 -0.11304379 0.016481586
000310 da f7 cc bc 67 bf d4 3d a1 9b 96 3d 03 7e 44 be
       -0.025020529 0.103880696 0.073539026 -0.19188695
000320 b8 96 66 be 14 24 cf 3d e5 6c 8e 3e 90 1a 3b 3e
       -0.22518432 0.10114303 0.27817455 0.18271852
000330 e1 eb 8c bd b2 fa 77 be df 7c b7 bd 55 1e 1d 3e
       -0.06880928 -0.24216726 -0.08959364 0.15343602
000340 a4 bc e5 bd 85 f9 43 be 70 4e b1 3d 5e 34 ab bd
       -0.11217621 -0.19138153 0.08657539 -0.083595976
000350 c5 7b 29 3e 4c 6f 86 bd 15 82 10 be ce e3 12 be
       0.1655112 -0.06564197 -0.14112122 -0.14344713
000360 01 1a a5 bd 10 d9 32 bd fc c5 2e 3b 7b 8c d7 3c
       -0.080616005 -0.04366404 0.00266683 0.026312103
000370 7a 63 0c 3e d0 3c f1 bb 47 af 8b bd 80 a9 9f 3d
       0.13709822 -0.0073619857 -0.06820541 0.077960014
000380 e0 ad 10 bd 9b a7 52 bc a4 5a 9d 3b 7f 86 22 3e
       -0.03532207 -0.012857343 0.004802065 0.15871619
000390 36 28 87 3c 0e 17 15 3d 63 8c d9 3c f9 d7 0c 3e
       0.016498666 0.03639894 0.0265562 0.13754262
0003a0 0e ce 0d be 51 a2 ca 3c b3 aa 35 3e 45 7e e9 3d
       -0.13848135 0.024735602 0.17740898 0.11401037
0003b0 76 44 57 bd ff c9 6a 3d ff 69 d0 bd 8e 36 8f bc
       -0.052555524 0.057321545 -0.10176467 -0.017482068
0003c0 09 7f c2 3d 5d 7e 24 be e8 a1 32 be 45 31 0b be
       0.09496886 -0.16063829 -0.17444575 -0.13593014
0003d0 1c 6b 4c be 3a c6 06 bd 09 7b 4c bd 0c 9a 8f be
       -0.19962734 -0.032903887 -0.049922023 -0.28047216
0003e0 7e 96 11 3e 75 7e f6 bc 4b 38 35 bc 2e 16 58 be
       0.14217564 -0.030089596 -0.011060785 -0.21102211
0003f0 d7 cd c8 bd 15 2e c6 bd 4f 4b b2 bd 13 67 bc 3d
       -0.09804886 -0.09676758 -0.0870577 0.09199347
